LeNetRecog/LeNet_learnt.pth (torch_old, 248484 bytes, 10 tensors)

conv.0.weight f4 [6, 1, 5, 5]
000000 79 1b e4 bd f7 17 d5 bd 69 f0 da bd f3 f4 ce 3d
       -0.111380525 -0.104049616 -0.10690386 0.10105314
000010 9d 3e aa bd 25 b7 92 3c 4d 26 c6 bd 44 ab a6 bd
       -0.08312724 0.017909596 -0.09675274 -0.08138135
000020 d4 95 ac bd 7e 4b a1 3d d5 e6 85 3e 61 de 12 3e
       -0.08427015 0.07875727 0.26152673 0.14342643
000030 db e4 8b 3c 9d c8 24 be 2f 73 a9 3d 86 42 f7 3d
       0.0170769 -0.16092153 0.08273923 0.12073235
000040 a3 5e 6e 3e 29 50 58 3e 51 61 3d bd 3e 42 e0 bd
       0.23278289 0.21124329 -0.046235386 -0.10950135
000050 19 bf 24 be e6 4f d2 bd e1 cd 90 bd ca 84 65 3e
       -0.16088523 -0.10269146 -0.07070518 0.22413936
000060 0b 99 ac 3d 79 47 c8 3c 12 f3 67 bc 6a 39 f1 bc
       0.08427628 0.024448143 -0.014157074 -0.029446322
000070 0d 16 ba bc db 03 3e be db 4c bd 3c 13 4e 4c bc
       -0.022715593 -0.18556158 0.023107937 -0.012469786
000080 9f 51 76 be 18 a2 12 3e 44 09 56 be fa 20 5c 3d
       -0.24054573 0.14319646 -0.20901972 0.053742386
000090 e7 e8 cc 3d cb 14 b9 3d bc b6 f3 3c 10 da 7f ba
       0.1000536 0.09037169 0.02975022 -0.0009759972
0000a0 79 22 18 3d 28 cd a5 3d 63 e3 de 3d 9f 19 8b bd
       0.03714225 0.08095771 0.10883214 -0.06791996
0000b0 49 1b 26 bd c1 3e d2 3c 10 5c e7 3d 0f 67 85 3e
       -0.040553365 0.025664689 0.112968564 0.2605519
0000c0 72 81 00 3d 96 88 19 3d eb 3b b2 bb 66 bf b7 bc
       0.03137345 0.037483774 -0.0054392717 -0.022430133
0000d0 bb d1 d4 bd c7 0f 4f be 81 85 01 3e fb a0 40 3e
       -0.103915654 -0.20220862 0.12648584 0.18811409
0000e0 f8 4d 9a bd d2 a4 27 be 7a 14 52 be 10 5c c3 bd
       -0.075344026 -0.16371468 -0.20515624 -0.09539044
0000f0 02 09 b5 bc 94 6b 02 3e 8e c2 d9 bb e1 77 bf bd
       -0.022099022 0.1273635 -0.006645507 -0.09349037
000100 93 58 50 bd 2b 87 50 3d 0c 8b 88 bd 59 5e 0f 3d
       -0.05086572 0.050910156 -0.06667146 0.035002086
000110 16 72 7c 3e 29 49 a0 3d 9a fb 6a 3e 94 bb e1 bd
       0.24652895 0.07826454 0.22947541 -0.11022106
000120 17 38 2d 3e c0 03 1a be dc 9f 6b 3d 57 3b d3 3d
       0.16915928 -0.15040493 0.0575255 0.103140526
000130 02 51 23 3e 9a 8f 5b 3e 7e 1a c4 bc e7 1c 27 be
       0.15948871 0.21441498 -0.023938414 -0.16319619
000140 64 8a c6 bd 63 69 6b bd 37 09 26 bc 1f 37 74 bc
       -0.09694365 -0.05747355 -0.010134033 -0.01490572
000150 41 11 6a 3e 3e a9 ea 3d 70 4e a3 bd c9 73 16 3e
       0.22858144 0.11458062 -0.07973945 0.14692606
000160 e1 de fc 3c 22 37 c1 3d bb 95 60 be eb 45 af 3b
       0.030867996 0.09434344 -0.21932118 0.005348911
000170 30 29 e1 3b f7 5e 37 be 57 3e 13 be 5d 65 d6 3d
       0.006871365 -0.1790732 -0.1437925 0.10468552
000180 1a 84 38 be 9c f7 84 be 70 68 86 be 5f bc 30 be
       -0.18019143 -0.2597016 -0.26251554 -0.17259358
000190 de 77 23 bd ab 7c 60 bd cb 67 df bc 63 31 86 3d
       -0.039909236 -0.054806393 -0.027271172 0.065523885
0001a0 f3 d4 2b 3e 02 24 d1 3c 02 22 86 bd 45 2f 0b 3e
       0.16780452 0.025529865 -0.06549455 0.1359225
0001b0 ad 0c 93 bc e0 60 4d 3d ee 96 64 3d ff af 0a 3e
       -0.01795038 0.050141215 0.055808 0.135437
0001c0 08 b5 ff bd 01 58 38 3e 7f 47 99 3d 90 8e 78 be
       -0.12485701 0.18002321 0.0748434 -0.24273133
0001d0 90 96 2e be 09 9c 0b be e1 91 c3 bd da b9 77 be
       -0.17049623 -0.13633741 -0.095493086 -0.2419199
0001e0 24 90 1f be dc ae f1 bd 2b 83 f5 bd a9 f4 7d be
       -0.15582329 -0.1180093 -0.11987909 -0.24800362
0001f0 d7 3b 93 be e6 42 bb bd ce 9e f9 ba f5 70 e3 bd
       -0.28756592 -0.09143619 -0.001904452 -0.11105529
000200 41 16 30 be 24 c2 54 3c 2a 81 94 3d 7f 13 34 be
       -0.17195989 0.01298574 0.072511986 -0.17585562
000210 bc d7 d1 bc fa 77 1b 3c 10 f8 0f 3e d8 eb 0f 3e
       -0.025615565 0.009489054 0.14059472 0.14054811
000220 1d bc 5d be b9 f2 87 be 62 70 9d 3d 10 97 32 3e
       -0.21653791 -0.2655237 0.07687451 0.17440438
000230 57 c1 4b bd 4b 78 12 be 80 32 b0 3c 86 bb 16 3d
       -0.04974493 -0.143037 0.021508455 0.03679993
000240 3d 9a 84 bd 47 d7 db 3d 84 dd 13 be a1 98 34 bd
       -0.06474731 0.1073442 -0.1443997 -0.04409087
000250 43 9b be bd ec dc 91 3b
       -0.093069576 0.004451385

conv.0.bias f4 [6]
000000 f4 68 cf 3d 51 74 e8 bd ec ef 47 3e 48 81 0f be
       0.1012744 -0.113503106 0.19525117 -0.1401416
000010 50 40 fb 3d 05 12 29 bd
       0.12268126 -0.04127695

conv.3.weight f4 [16, 6, 5, 5]
000000 5f a2 48 3e 62 af 29 3e 66 7b 39 3b 99 21 cd bd
       0.1959319 0.1657081 0.002830231 -0.10016174
000010 8e 7e d9 bd 67 42 fc 3d 3f b0 ca 3d f1 5c 10 3e
       -0.106198415 0.12317353 0.098968975 0.14097954
000020 48 b4 f7 3d 32 7c 97 3d e9 08 1b 3e cd 75 dd 3d
       0.12094933 0.07396735 0.15140118 0.10813484
000030 6c ae ab 3d 86 68 df 3d 13 79 00 3e a3 0b 79 3d
       0.08382878 0.10908608 0.12546186 0.060802113
000040 28 db e3 3c 5b 7d 2e 3d ce 9a 83 bb 58 5c 56 bd
       0.027814463 0.042600017 -0.004016257 -0.05233416
000050 b3 90 87 3d f7 4a 26 3d df 37 82 3c de 94 c4 38
       0.06619396 0.040598836 0.015895782 9.373737e-05
000060 79 f4 b5 bc 25 b4 2d 3e 92 9e 03 3e 9b f3 af 3d
       -0.0222113 0.16963251 0.12853459 0.08591386
000070 78 46 4a 3d ee 38 91 bd 35 26 02 3e 55 6e e6 3d
       0.04938361 -0.070909366 0.12709887 0.11251513
000080 37 72 00 3e 6e 4c 26 3d 9c 24 fb 3d b8 93 c6 3b
       0.1254357 0.040600233 0.12262842 0.00606009
000090 16 95 eb bc 24 1d 1f 3d f0 0e dd 3d 43 08 e3 3d
       -0.028757613 0.03884615 0.10793865 0.1108556
0000a0 68 8c b6 3d 9e b7 0e bd 87 ea 76 bd 00 ea 2a 3d
       0.08913499 -0.03484308 -0.060282256 0.041727066
0000b0 69 7f 1d 3e 4c bb 3d 3e 04 71 d4 3d 31 5f 86 3b
       0.15380634 0.1852848 0.103731185 0.004100703
0000c0 ba 2d 3e 3d a3 e3 04 bc 40 fc 2d 3d c5 8a 03 3c
       0.046430327 -0.008110913 0.042476892 0.008028691
0000d0 c5 b6 c7 3c 64 9a bd 3d e7 2c 4f 3d b6 1c 04 be
       0.024379143 0.09257963 0.05057993 -0.12901577
0000e0 8b f9 85 3b 5a dc 54 3d f2 5a c0 3d bf ab c0 3d
       0.0040885857 0.051967956 0.093923464 0.09407758
0000f0 61 b0 49 be 25 57 4e be 3e d7 7b bd b4 61 e8 3c
       -0.1969619 -0.2015043 -0.061484568 0.028366901
000100 82 d0 89 3e 29 d5 e2 bd 15 af 79 be 51 df 00 be
       0.2691689 -0.11075813 -0.24383195 -0.12585188
000110 ef 11 8f bc b6 bd d6 bc 8b d7 39 3e f0 62 25 3e
       -0.017464606 -0.026213508 0.1814863 0.16151023
000120 51 8c be 3d 77 03 d9 3d 74 27 85 3c 96 a4 ea bc
       0.09304107 0.10596364 0.016254164 -0.028642934
000130 88 cb d1 bd 68 4d bd bd 7a 66 25 ba 83 c9 77 3d
       -0.10243899 -0.0924328 -0.00063095207 0.06049491
000140 79 89 3f be e7 88 83 bd b3 c2 bc bd 3c eb 0d be
       -0.18704785 -0.064225964 -0.092168234 -0.13859266
000150 42 1e 38 bd 43 a3 e4 3d 4f f4 7f 3d 08 8e e6 bd
       -0.04495073 0.11163952 0.06248885 -0.11257559
000160 b6 aa 1f be a2 83 1e be bc 16 b3 3d f2 d4 be bd
       -0.15592465 -0.15479901 0.087445706 -0.0931796
000170 8c 86 f8 bd f7 c3 05 be fe d8 f3 bd 08 8c 26 3d
       -0.12135038 -0.13063036 -0.11906622 0.040660888
000180 49 9d 68 bd 23 40 2d bd 56 89 82 bd 8b cf dd 3b
       -0.056790624 -0.042297494 -0.06373851 0.006769126
000190 a2 5f 02 bd c0 65 00 bd f3 c3 af bd 1d 57 4b 3c
       -0.031829484 -0.031347036 -0.08582296 0.012410906
0001a0 c5 a2 5e 3d a1 5b 13 be f9 c1 c6 bc f1 f4 a1 bd
       0.054354448 -0.14390422 -0.024262415 -0.07908047
0001b0 f5 f0 9b bd b2 66 4c 3c e6 ab 78 bd eb 2d 9c 3c
       -0.07614318 0.012475656 -0.06071081 0.019064864
0001c0 6b 73 1a 3b 78 5b be bd 5c 4c 16 3b 69 07 3f bd
       0.002356733 -0.0929479 0.0022933697 -0.046637926
0001d0 4c 9f ae 3d cb 25 1f 3d 49 89 f8 3d e7 27 d3 3d
       0.08526477 0.0388544 0.1213556 0.10310345
0001e0 9c fd 6e be 26 76 03 be 24 38 8e bc 6f 09 0b 3e
       -0.23338932 -0.12838039 -0.017360754 0.13577817
0001f0 26 3a 23 3e 74 d2 bd bd c3 ce 55 be f6 f8 fd bd
       0.1594015 -0.092686564 -0.20879655 -0.12401001
000200 62 a6 68 3d 66 f0 69 3e 57 2a 8a bd e1 34 1c be
       0.0567993 0.22845611 -0.06746357 -0.15254547
000210 a2 42 80 be 9c c5 d8 bd 78 f8 01 3e ab b3 02 3e
       -0.25050837 -0.10584566 0.1269244 0.1276385
000220 a0 b4 a1 3d 49 21 51 bd e4 5a a8 bd 57 12 f4 3b
       0.078957796 -0.051057134 -0.08220461 0.0074484753
000230 46 8d f5 3d 4f 18 10 bc 7d ca d6 3d cb 34 14 3e
       0.119898364 -0.008794858 0.1048784 0.14473264
000240 7f bf 91 bd 79 39 af 3d 98 61 15 3e 4d 95 3f 3e
       -0.07116603 0.08555884 0.1458801 0.18709297
000250 b2 dd fa 3d 68 8f c5 bc 1f bf 07 3e 94 06 81 3d
       0.12249316 -0.024116233 0.132565 0.06300083
000260 a2 cb 72 bd 2d 3c 17 be 12 d5 ed bd e8 10 0f 3e
       -0.05927623 -0.14769049 -0.116129056 0.13971293
000270 92 34 58 3d 79 f4 ca ba 23 8d 10 be 95 6b 00 be
       0.05278451 -0.0015484235 -0.1411634 -0.1254104
000280 8f fc 84 3d e7 05 d8 3c 79 6e 29 3d ac 4f 13 bd
       0.06493484 0.026370002 0.04136512 -0.035964653
000290 d7 aa 8c be 35 75 f6 bc 57 45 5b 3d 0d 87 e6 3d
       -0.2747409 -0.030085186 0.053532925 0.11256228
0002a0 26 d5 4a bb b3 6c 19 be 00 f2 69 bd 68 8c d2 3d
       -0.00309498 -0.14982872 -0.057115555 0.102806866
0002b0 42 00 b4 3d 4a 07 dc bd 43 09 40 be de 7f b7 3d
       0.08789112 -0.10743578 -0.18753533 0.089599356
0002c0 e8 26 d7 3c 60 47 72 bd 6f 6b be bd 62 62 ce 3c
       0.02626367 -0.0591501 -0.09297835 0.025193397
0002d0 f2 78 5f 3d 6c 4f 03 3e f8 6b bf bc 66 31 80 bd
       0.0545587 0.12823266 -0.023366913 -0.06259422
0002e0 0e e5 6b 3c 7b 47 e6 3c 3b 27 99 bc 60 47 52 3d
       0.014397873 0.028110256 -0.018695464 0.0513376
0002f0 cc a2 2e 3d f0 6d 90 3d fd 18 fb ba c0 7f d0 3d
       0.042635724 0.07052219 -0.0019157227 0.101806164
000300 9e 80 0e 3c b0 ac 45 3d d4 f2 13 bd 2a 1c bf 3d
       0.008697657 0.04826039 -0.03612025 0.09331544
000310 1a 60 2f 3e ea 11 83 3d 47 79 c6 3b c0 ff 95 3c
       0.17126504 0.06399901 0.006056938 0.018310428
000320 fa 83 01 3c 3a 7b 41 3c 97 5b 1d bd 20 06 2e bc
       0.007905001 0.011809165 -0.038417425 -0.0106215775
000330 0e e8 a2 3d c0 f4 9b bd f3 6e 29 bd a2 02 4d 3d
       0.07954417 -0.07615042 -0.041365575 0.05005134
000340 69 e5 dc bd c5 43 44 bc 25 cd 7a bd 25 b5 fd 3d
       -0.10785944 -0.011979048 -0.061230797 0.12388066
000350 46 92 b2 3d 16 3c 8a 3d d8 bf 9e bc 69 5d 81 be
       0.08719306 0.06749742 -0.019378588 -0.2526658
000360 78 57 7d 3e 11 32 bf 3d 6e bd 11 3e 2e a5 11 bd
       0.24740398 0.09335721 0.14232418 -0.03555792
000370 d9 5d b1 bd 90 5e 1b 3e 6b b4 0a bc 92 5f 0d be
       -0.08660478 0.15172791 -0.008465867 -0.13805988
000380 3d b2 04 be a0 0a b9 bd 07 7c 79 3d 99 8d 0b 3e
       -0.12958618 -0.0903523 0.060909297 0.13628234
000390 f2 14 06 3e e4 83 b1 3d 05 58 c0 bd 2f 12 a9 3d
       0.13093928 0.08667734 -0.093917884 0.08255421
0003a0 07 15 10 3e 91 a2 d6 3d 8e 3f 98 3d a4 cb 1a bd
       0.14070521 0.10480226 0.07433997 -0.037791863
0003b0 08 4d 47 3d 96 a7 2e 3d 61 9b cd 3d 4d d0 ed 3d
       0.048657447 0.04264029 0.10039402 0.11611996
0003c0 2a 15 03 be 5d 3a 5f 3c a1 17 9a bd d5 18 ab 3d
       -0.12801042 0.013624755 -0.07524038 0.08354346
0003d0 35 38 7e 3d ce 5b 86 bc c7 4d 0d bc 2a 05 0d 3d
       0.062065322 -0.016401198 -0.008624501 0.034428753
0003e0 6f 2d 0e 3e 11 72 32 3d 5e 59 16 bd e0 ae c4 bc
       0.13884519 0.043565813 -0.03670632 -0.024009168
0003f0 e2 d3 23 3d e9 b0 c2 3d 21 87 f1 bc 6e b8 39 bd
       0.03999699 0.09506399 -0.02948338 -0.0453419

conv.3.bias f4 [16]
000000 e2 f5 88 bd c7 f4 38 bc 54 77 fe 3d 2c f0 ef 3d
       -0.066875234 -0.011288828 0.12425104 0.11715731
000010 7f 63 1a 3e 62 82 08 3e 87 33 9a 3d a8 d5 cf 3d
       0.15077017 0.13330987 0.07529359 0.101481736
000020 20 d2 72 bd 1e 82 83 bd ab ac 61 bc 43 f4 0b bd
       -0.059282422 -0.06421302 -0.013774077 -0.034168493
000030 eb b9 f0 3c ea 37 23 bd 76 fc ee bd 83 fc cf bd
       0.029385528 -0.039848246 -0.11669247 -0.10155585

fc.0.weight f4 [120, 400]
000000 00 ad 1c 3b 3b aa 01 be 37 18 66 bd 32 e9 99 3c
       0.0023906827 -0.12662594 -0.056175437 0.018787954
000010 0d b0 ce 3d 81 07 e8 bc 9d c8 29 bc db c8 5d bc
       0.10092173 -0.02832389 -0.010362771 -0.013536657
000020 11 13 62 3c 3c 57 9a 3d 0b 40 f2 bd 40 91 4f bd
       0.013798491 0.0753617 -0.118286215 -0.05067563
000030 04 91 bd 3d 05 32 e0 3c c8 92 ad 3d bb c0 95 bd
       0.09256175 0.027367601 0.08475262 -0.07312151
000040 14 60 aa bd 4a 25 f8 3b b0 1a 5b 3d 62 b3 a6 3d
       -0.08319107 0.0075728046 0.053492248 0.08139683
000050 53 7d e7 bd b1 9b 8e bd 7c 09 83 3d e5 ba 88 3d
       -0.113032006 -0.069632895 0.063982934 0.06676272
000060 e6 b0 16 3e 3b 6d d2 3b e9 be a2 bb 61 1e b2 3d
       0.14715919 0.0064217127 -0.004966606 0.086972006
000070 57 f3 4c 3c 76 14 a9 3d ab df b7 3c 26 17 62 3d
       0.012509189 0.08255856 0.02244552 0.055197857
000080 59 6d 9c 3d c2 c6 65 3d d5 e1 df 3c 4c 18 89 3c
       0.07638044 0.056097753 0.027329365 0.016735218
000090 16 46 b6 bd b3 9e 8c 3d 98 14 b7 3d 27 f9 c6 3d
       -0.089000866 0.06866207 0.08939475 0.09715491
0000a0 d2 09 b7 3b 86 b6 0c 3c 6c dd de 3d 9b 94 b8 3d
       0.0055858875 0.008588439 0.108820766 0.09012719
0000b0 3f 40 5d 3d 33 eb 59 3d e9 04 92 3d 4a 26 20 3d
       0.054016348 0.05320282 0.07129843 0.039099015
0000c0 b5 9b 75 3d b1 ef ac bd a5 98 95 3d de 7a 42 3d
       0.059962947 -0.08444155 0.07304505 0.047480457
0000d0 5a d2 8c bb d3 e6 09 bd c7 f4 c0 3d 57 4e 1b 3d
       -0.004297537 -0.033667397 0.094216876 0.037916508
0000e0 e9 c5 95 bc d7 9a bf bd ae 61 78 3d e2 4b 8e 3d
       -0.018282847 -0.09355705 0.06064003 0.06948067
0000f0 91 92 b1 3d 31 0a eb 3c 0f 03 11 bd 9e 93 37 3d
       0.086705334 0.028691383 -0.035403308 0.044818513
000100 12 47 22 3d e2 92 c7 3d 82 4f 99 3c a5 e0 b4 bd
       0.03961856 0.097448125 0.01871467 -0.0883191
000110 35 52 ef 3b 9c a6 7b 3d 04 ec c9 3d 80 6e eb 3b
       0.007303501 0.061438188 0.098594695 0.0071848035
000120 2d 74 af bc 9d 04 01 3d dc f8 a8 3b 86 1e da 3d
       -0.021417702 0.03149854 0.0051566195 0.10650353
000130 d4 20 a4 3c 92 15 10 3c c5 5c 5e 3d e1 27 f2 bb
       0.020035185 0.008794205 0.05428769 -0.007390008
000140 70 87 ab bd d2 87 22 bc 69 49 fc bc c4 59 b2 ba
       -0.08375442 -0.009920077 -0.030796723 -0.0013607075
000150 15 e7 51 bc fc 01 8d 3d 0f 3d 25 3d da 9c 8a 3b
       -0.012811442 0.06885144 0.040341433 0.004230124
000160 4f 3e 53 bd a1 16 fd 3c c2 04 0e 3d 1a 89 34 3d
       -0.051573094 0.03089458 0.034672506 0.044076063
000170 fb a8 05 bd 32 92 d0 3c b6 d0 6c 3d ae 40 78 3d
       -0.032631855 0.025460336 0.05781623 0.06060856
000180 82 d3 89 3d 61 3d 9a bd 3a 5d ed 3c a3 63 bb 3d
       0.06729795 -0.07531238 0.028975118 0.091498636
000190 8a 08 86 3c d1 48 a5 bb 03 bc 80 be 63 f0 71 bd
       0.016361494 -0.005044081 -0.25143442 -0.05906714
0001a0 8a 6e 55 bd 4c 28 c3 bd 82 56 fe bd 27 8d c7 3c
       -0.05210737 -0.095291704 -0.12418844 0.024359299
0001b0 33 2b cd 3d 32 9a f1 3c bf 05 16 bc 73 7b c1 3d
       0.10018005 0.029492471 -0.009156643 0.09447374
0001c0 6f fa 97 bc 76 31 56 bd 65 33 3e 3c 37 b6 90 3d
       -0.018552033 -0.052293263 0.011608933 0.07066005
0001d0 4b 80 9d bc 1f 56 08 bc bf 56 5a 3d ae 49 07 3e
       -0.019226214 -0.008321314 0.053305384 0.132117
0001e0 20 c0 c7 3d 5c 18 07 bd 65 51 33 3d da 8c 83 3d
       0.09753442 -0.032982215 0.043778796 0.0642335
0001f0 f6 8a 63 3c 7d 07 d3 3b f1 91 25 bd 84 b2 50 3d
       0.013888111 0.0064401017 -0.040422384 0.050951496
000200 90 a1 ac 3d 18 13 ae 3d 55 ec 85 bd e7 85 3d bd
       0.08429253 0.084997356 -0.065392174 -0.046270277
000210 9b 74 8d bd 8e eb 64 bc 0b e3 a0 3d a6 ab f2 3c
       -0.06907006 -0.013972176 0.07855805 0.029622864
000220 57 10 15 3c 10 90 a6 bc dc f7 60 3c e2 f3 dd 3d
       0.009098134 -0.020332366 0.013730969 0.108375326
000230 37 d6 d7 bd 91 6a 34 3c a9 50 21 bd 66 77 ac bc
       -0.10538905 0.011011736 -0.039383564 -0.021053027
000240 57 6f 2d bb 10 b3 3d bc 09 32 b8 3c c6 82 e5 3d
       -0.0026464069 -0.011578336 0.022484796 0.11206584
000250 43 2f ed 3c 17 32 6f 3d 6f 56 33 3d f3 b3 e4 3c
       0.0289532 0.05839738 0.0437836 0.027917838
000260 33 7e 1a bd a5 82 80 bd c1 0f 8b bc 81 cc 66 bc
       -0.03771801 -0.062749185 -0.016975285 -0.0140868435
000270 af 60 1a 3d ff 66 26 3d 5b a3 a6 3d 04 a9 67 3d
       0.03768986 0.04062557 0.08136626 0.05655767
000280 6f 67 1b 3d 59 cc 9f 3d eb 40 e1 bc 10 11 24 3d
       0.03794044 0.07802648 -0.027496776 0.040055335
000290 8c de d3 3c 05 a8 35 bd b4 a2 8d bd d5 ce aa 3d
       0.025862955 -0.04434969 -0.06915799 0.08340231
0002a0 94 c1 ab 3d 71 b7 99 3d 76 cb 27 3d bc b9 c9 3d
       0.083865315 0.07505692 0.04096552 0.09849879
0002b0 08 ff 8d 3d 33 f4 23 3c 0b f6 e8 bc 0d f7 bb 3c
       0.06933409 0.010006952 -0.028437635 0.022944951
0002c0 cc 1b 16 3d 6e d3 a1 3c 6b 5c 86 bd 35 a2 6a 3d
       0.036647603 0.019754138 -0.06560596 0.0572836
0002d0 3b 08 13 3d 3c 20 36 3d 97 94 9d 3c 58 3f 83 bd
       0.03589652 0.044464335 0.019235892 -0.06408566
0002e0 6d 57 6c 3d 6b 5d 6d bd e6 f8 53 3d b8 01 9e 3d
       0.057700563 -0.05795042 0.05175104 0.077151716
0002f0 d4 77 91 bd 32 49 e4 3d d7 29 22 3d ac 5d d0 3c
       -0.071029335 0.111467734 0.039590683 0.025435291
000300 45 77 84 3d ba d3 65 bc e6 07 38 3d 43 19 13 bd
       0.06468061 -0.01402753 0.044929408 -0.035912763
000310 df e2 27 bd 4c fe 12 3d 37 e9 c3 3c 2a 7c a8 3d
       -0.040987846 0.035887048 0.023914916 0.082268074
000320 f8 b0 9c bd ac 6e 6b bd 58 f8 6f bc bb 6c 1a bd
       -0.076509416 -0.05747859 -0.014646612 -0.03770135
000330 eb c9 55 bd a9 48 62 3d 0c e6 37 3d 1d ed cd bc
       -0.052194517 0.055245075 0.044897124 -0.025137478
000340 56 70 1b bd 11 53 9c 3d d8 f3 31 bd 2f 10 28 3d
       -0.03794893 0.07633031 -0.04344544 0.04103106
000350 1e a8 a2 bc fd 66 a0 3d d8 56 9e 3d 60 fc 23 3d
       -0.019855555 0.078321435 0.07731408 0.040035605
000360 df 75 ac bb b6 b3 96 bd a7 c3 96 3d 58 51 e1 3c
       -0.0052630748 -0.07358496 0.073615365 0.027504608
000370 63 33 0d bd f8 78 a1 3a dd 9e e8 bc be 80 35 3d
       -0.034472834 0.0012319377 -0.028396064 0.04431223
000380 4f 01 b5 3d a8 ba 60 3c 17 d1 65 bc fe f1 c1 3c
       0.0883814 0.013716377 -0.014026902 0.023674961
000390 8d 80 76 3d ed ca 93 3d eb ed 81 bb b6 c1 71 bc
       0.06018119 0.072164394 -0.0039651296 -0.014755657
0003a0 07 ae 8d bc 86 6e ba 3d 2b 5a 34 3d 90 0d 8f bd
       -0.017294897 0.09103112 0.044031303 -0.06985009
0003b0 99 64 03 3d 8a b7 42 bd 62 be f7 3c 51 78 f0 3d
       0.03207836 -0.047538318 0.030242149 0.117416985
0003c0 db 18 32 3d 90 1a 25 bd 7c 7b 9d 3b 82 a9 8d 3d
       0.043480735 -0.040308535 0.0048059803 0.06917097
0003d0 2a 00 a4 3d 2e 96 2d 3d 03 8d 24 3d 18 5a e2 3d
       0.08007844 0.04237955 0.04017354 0.1105234
0003e0 d9 86 ec 3d 49 8b f0 3a 27 73 9d bd 81 50 2a bc
       0.11549158 0.0018352057 -0.07687979 -0.01039517
0003f0 a8 8a 9e bd 4d 85 89 bc 9a f6 69 3d 1d 94 9a bd
       -0.0774129 -0.016787196 0.057119943 -0.075477816

fc.0.bias f4 [120]
000000 3c f4 aa 3d ab 67 a7 3d 1a e8 cd 3c ad 64 b5 bc
       0.08347365 0.0817407 0.025135089 -0.022142733
000010 69 a8 a4 3d 3f 8b 58 3d 20 9a 89 3d 69 d6 07 ba
       0.08039934 0.05286717 0.0671885 -0.0005181791
000020 6b eb 6b 3d fb 56 3b bd 95 1d 06 3d 9d 12 c7 3d
       0.05759756 -0.045737248 0.032743055 0.09720347
000030 57 00 a7 3c 6d e8 b4 3d 24 21 42 3c 58 f2 a9 3b
       0.020385904 0.08833394 0.011848722 0.0051863603
000040 c2 ef 9e 3d 26 dd b2 3d b0 10 30 3c 6f 53 87 3d
       0.07760574 0.08733587 0.010746166 0.066077106
000050 5c 4f b8 3d 16 63 64 bb ec 0e 42 bd 8e 23 7a 3c
       0.089995116 -0.00348491 -0.04737751 0.015267266
000060 b8 0d 13 3c ff d4 64 bd e7 02 39 3d 78 ce a0 3d
       0.008975439 -0.05586719 0.045168784 0.07851881
000070 dd 5b 36 3c ff 57 e5 bc b6 24 61 3d a7 3d 0e bd
       0.0111303 -0.027996061 0.05496665 -0.034726765
000080 d1 c7 96 3d d2 78 4e 3c f6 49 2a 3b 68 f2 4c bc
       0.07362331 0.012602048 0.0025984026 -0.012508966
000090 67 1f cf 3c 00 8f 50 3d 82 3d 28 3d aa 3f bc bc
       0.025283528 0.050917625 0.041074283 -0.022979576
0000a0 9d f9 90 3d cd 8e c4 bd f4 c2 f8 3c 21 c7 91 3d
       0.0707886 -0.095975496 0.030366398 0.07118059
0000b0 fc ea 9a 3c 6a b8 7a 3d 10 23 89 3c b4 f5 b7 3d
       0.018910877 0.061211027 0.016740352 0.08982411
0000c0 37 31 26 3e ab 61 0b bd 6f 70 d5 3c 22 6a 5b 3b
       0.16229711 -0.03402869 0.02605459 0.0033480008
0000d0 1d 06 8d 3d 4c a2 31 3d 30 5f 15 bc 66 a9 0d bb
       0.06885932 0.04336767 -0.009116933 -0.0021615862
0000e0 e0 a0 1d 3d 7f e6 8e 3d ac 49 70 3d 09 51 56 3d
       0.0384835 0.069775574 0.05866401 0.052323375
0000f0 06 f0 a3 3c d6 06 a3 3d 4f 71 00 3b 0a a2 5f 3d
       0.020011913 0.07960288 0.0019598787 0.054597892
000100 f1 71 86 bd d4 64 77 3d 1a d5 48 3d b1 00 2b 3d
       -0.06564701 0.06039889 0.049031354 0.041748706
000110 07 3e 8a 3d cd 7b 02 3d e2 e4 3e bc de bc 9a 3c
       0.06750112 0.031856347 -0.01165125 0.018888887
000120 59 d9 1c 3d 1e e0 93 3d 26 11 9f 3d 2c 68 b1 3d
       0.038293216 0.07220481 0.07766943 0.08662447
000130 74 53 93 3d 15 eb 2c 3d 6e e0 72 3d be 97 de 3c
       0.07193652 0.04221638 0.059296064 0.027171966
000140 4c 61 13 3c ce 18 ec 3c 2e 12 3a 3d 2b 3e 70 bd
       0.008995365 0.028820422 0.045427494 -0.058653038
000150 cd 17 c5 3c dc a2 c0 3b 8f 99 d3 3c f1 63 24 3a
       0.0240592 0.0058787894 0.025830058 0.0006270996
000160 3c 53 4b 3d f0 2a f4 3c 21 b9 51 3c a0 d1 b8 3b
       0.049639925 0.02980563 0.012800486 0.0056402236
000170 14 0f 91 3d 35 a1 04 bb ac 88 88 3d 03 86 3a 3d
       0.07082954 -0.0020237688 0.06666693 0.04553796
000180 aa 76 b2 3d 07 32 af 3a 9b 01 e4 3c f0 99 74 3d
       0.087140396 0.001336635 0.027832797 0.05971712
000190 48 ab da 3c f7 a4 8c 3d cd 66 34 3c 81 cd a4 3c
       0.026693001 0.06867402 0.011010838 0.020117523
0001a0 51 c9 a7 3c 59 0a 3c 3d 4d 9e 3c 3d fd 31 d0 bc
       0.020481737 0.045908306 0.046049405 -0.025414461
0001b0 1c cb 07 bc 16 8f 25 3c f5 90 2c bd dd f7 01 3d
       -0.008288171 0.010104915 -0.04213043 0.03173052
0001c0 3a 11 1a bb 23 36 01 3e 12 fd 08 3d 70 fa 99 3d
       -0.0023508803 0.12618308 0.03344447 0.0751847
0001d0 4e bb 80 3c fb 12 a1 3d 0c 2e b6 3c 48 92 36 3d
       0.015714314 0.07864948 0.022238754 0.0445731

fc.2.weight f4 [84, 120]
000000 65 d1 d5 bd a7 a4 fb bd bf ac b9 bc 24 af 19 bd
       -0.104403295 -0.12287264 -0.02266538 -0.037520543
000010 b7 8e af 3d 4c 1f 61 3c 83 9c e4 3b c5 de 7c 3d
       0.085721426 0.013740372 0.0069766655 0.061735887
000020 28 6a 24 be dc 43 8e 3e 66 7f a4 bd 80 17 b5 3c
       -0.1605612 0.27786148 -0.08032112 0.022105932
000030 53 2d 15 be 5a 64 e8 bd 86 7d 23 3e fe 9a 2b be
       -0.14568071 -0.113472655 0.15965852 -0.16758344
000040 62 7c 02 bd af 1c a8 3c fc 5e ae bd ba 65 b1 3d
       -0.031856902 0.02052149 -0.085142106 0.08661981
000050 0e 1a 64 bd 6b b2 14 be cb ec 76 3c bf d2 0a bd
       -0.05568891 -0.14521186 0.015071104 -0.03389239
000060 3b 1f 4d bd 1a e4 43 bd 0c 89 0d be e3 81 4d bd
       -0.05007861 -0.047824956 -0.1382181 -0.050172698
000070 d5 e5 75 3e 2d 2b ad 3d 25 cb 06 bb 78 fe 07 3e
       0.24013455 0.08455501 -0.002056786 0.13280666
000080 ba 0a c2 bd 63 ee 78 3d 3f 3f 1f bd 94 a9 23 3e
       -0.09474702 0.06077422 -0.038878676 0.15982658
000090 39 8f 12 3e 4c 6a 93 3d 5a d0 70 bb dd 87 20 3e
       0.14312448 0.07198009 -0.003674528 0.15676828
0000a0 b9 6e ad bc 42 be db 3d ad 38 46 be 40 55 69 3d
       -0.02117096 0.10729648 -0.19357558 0.056966066
0000b0 70 3f b4 3d 42 0a 70 3d fd 0f 72 3e fd 31 c1 bd
       0.08801162 0.058603533 0.23638912 -0.09433363
0000c0 73 52 60 be 40 d9 61 3d 2d 79 1e be 53 fb be 3e
       -0.21906452 0.055138826 -0.15475912 0.3730112
0000d0 22 49 34 bd 3f 33 a8 3c 44 6b b3 3d 7a ec ec 3d
       -0.044015057 0.020532249 0.08760694 0.11568542
0000e0 01 20 8c 3e ef 5e 9e 3d 56 68 9e bd fa 99 63 bc
       0.27368167 0.07732951 -0.07734744 -0.013891691
0000f0 15 5b 73 bb 33 ca 05 bd 68 eb 9a 3d 0a 93 d3 3d
       -0.0037133147 -0.032663535 0.075644314 0.1033078
000100 52 e0 17 be 4e 3e b4 3b a3 83 37 bd 67 5a 0b 3e
       -0.14831665 0.0055005914 -0.044803273 0.13608705
000110 0a b1 5f bc 6c 3a 14 3c 03 71 b2 3d 14 06 5a 3d
       -0.013653049 0.009047132 0.087129615 0.053228453
000120 ae 96 f6 3d 1f 2f 49 bc b9 18 19 3d d2 3b 90 bd
       0.120404586 -0.012279301 0.037377093 -0.0704266
000130 c7 1f f6 bd d7 f8 0f 3d d0 2c 9c 3e 7b 7c e3 3b
       -0.1201778 0.03514942 0.3050294 0.0069423295
000140 8e ae a2 3d e8 2f f5 3d c9 6f fc 3d 85 6d 2f 3c
       0.0794345 0.11972028 0.12326009 0.010707264
000150 ee 9b 85 3d da b8 c5 3d 49 56 cb bc 3f 30 f0 3c
       0.06523882 0.09654398 -0.024821417 0.02931988
000160 ce 8f 0d be 6a d0 cf 3d 5d a8 f7 3b 21 93 11 bc
       -0.13824388 0.10147174 0.0075579123 -0.008885176
000170 3e 1b 45 3e d6 79 99 bc 4a 31 45 bd 92 cf a8 bd
       0.19248673 -0.018734854 -0.04814271 -0.08242716
000180 28 2b b9 bd 58 16 99 3d 6d 82 53 3c ec 4a 50 bd
       -0.090414345 0.07474965 0.012909514 -0.0508527
000190 a8 22 7f 3d d2 bb 60 3d 54 73 19 bd 17 1a 2f be
       0.06228891 0.05486662 -0.0374635 -0.17099796
0001a0 ce 20 eb bc 56 4e 27 be 78 3b 7a bd 81 2c aa 3c
       -0.028702166 -0.16338477 -0.06109187 0.020773174
0001b0 bd 1d cd 3d 6d 53 01 3d b0 1d fd 3c aa 37 c0 3d
       0.10015438 0.0315737 0.030897945 0.09385617
0001c0 21 63 bd 3d 26 5a 39 bc 00 bb 45 3b f0 a0 bb bd
       0.09247423 -0.011312997 0.0030171275 -0.09161556
0001d0 f4 55 5a 3d a9 9a 80 bd 37 72 c8 3d 15 97 73 bd
       0.053304628 -0.06279499 0.0978741 -0.059470255
0001e0 5f 8c 04 3e ff a9 5c bd 64 28 e2 3d 25 c3 13 3c
       0.12944172 -0.05387306 0.1104286 0.009018694
0001f0 7d 2b d2 3d db 5c ec bd 04 b6 5a 3d 0d 7a f6 3d
       0.10262201 -0.11541148 0.05339624 0.12034998
000200 37 c3 51 3c f8 29 e5 3b d7 5d 67 bd b7 9f bd 3d
       0.0128028905 0.0069935285 -0.056485977 0.09258979
000210 99 5a 89 bc f6 74 a8 3d 51 6c a7 be b0 93 d5 3d
       -0.016766833 0.082254335 -0.32699826 0.1042856
000220 fb b5 c8 3c 1d e6 02 bc 26 f1 a7 bc 32 40 94 3c
       0.024500838 -0.007989434 -0.02050073 0.018097017
000230 eb 10 9e 3c 6c c9 f7 3d 90 a7 99 3d 54 4e 0e bd
       0.019295176 0.12098965 0.07502663 -0.03474267
000240 63 bb c0 3d ad 02 47 bd 04 f1 e8 3d 14 a3 59 3d
       0.09410741 -0.048586536 0.11374095 0.05313404
000250 95 82 bb 3d 32 42 e8 3b 01 da 47 3c 96 4d f4 3d
       0.09155766 0.007087969 0.012197972 0.11928861
000260 c6 2d dd 3d c6 61 16 3d 57 cb 99 3d c4 27 94 3d
       0.10799746 0.036714338 0.07509487 0.07234147
000270 64 52 fa 3d 6e 45 ac bd f4 8b 7a bd 4a 89 3a 3d
       0.12222746 -0.0841168 -0.061168626 0.045541085
000280 e2 80 ca 3d 62 83 15 3c f7 4d ed 3d 08 cf fe 3d
       0.09887864 0.009125562 0.11587136 0.12441832
000290 41 13 b0 3d 8e 4e cb bd 26 e4 7e 3b 12 ba 06 bd
       0.085974224 -0.099270925 0.0038893311 -0.032892294
0002a0 68 e9 ab 3e cd 49 ee bb 6a 4d 79 3d 61 7c 84 be
       0.33576512 -0.0072719813 0.060864843 -0.25876144
0002b0 76 64 9f 3d 52 35 02 3e c3 4a 9d bc 59 10 dc 3e
       0.07782833 0.12715653 -0.019200688 0.42981222
0002c0 27 db b3 bc db 61 74 bd 6c e1 59 bd 15 64 37 3c
       -0.021955086 -0.059663635 -0.053193495 0.011193295
0002d0 01 17 96 bd 94 6c 7c 3a 1a cc be 3d b9 38 c4 bc
       -0.073286064 0.00096292165 0.09316273 -0.023952829
0002e0 3a 4f 40 3d f5 fb 59 3d b4 9c a6 bd 88 cb ce 3d
       0.046950556 0.0532188 -0.081353575 0.10097414
0002f0 02 2c e3 bd 2f de f5 bb 05 11 dd 3d 01 24 bf bd
       -0.11092378 -0.007503293 0.10794262 -0.09333039
000300 a8 8c 81 3d fb eb 8e 3d 63 12 87 bc 57 e8 90 3a
       0.06325656 0.069786035 -0.01648826 0.0011055571
000310 3b f6 ce 3d 44 9d 7f bd 62 60 e5 be 10 40 e4 bd
       0.101055585 -0.06240584 -0.44800097 -0.111450315
000320 74 20 a0 3d 1f 4f 7f be a9 7a 00 3e 3c b8 15 ba
       0.0781869 -0.24932526 0.12546791 -0.0005711352
000330 b4 70 62 bc 01 07 50 3d 69 4b bd 3d 6f 04 e0 3c
       -0.013820816 0.05078793 0.09242899 0.027345864
000340 4e 42 a5 bd a9 2f 87 39 16 56 1e bc 84 b2 ae 3d
       -0.08069287 0.00025784716 -0.009664079 0.08530143
000350 db d4 89 3d 02 3d ac bd ee 14 87 bd df 1e e4 3d
       0.06730052 -0.08410074 -0.06595789 0.11138701
000360 f9 e4 06 3e 35 52 d9 3d 77 74 7b 3d f5 b6 00 be
       0.13173284 0.10611383 0.061390366 -0.12569793
000370 00 c0 51 3c 51 38 82 3d e0 5e 23 bc 6c b1 8a 3d
       0.012802124 0.06358398 -0.00997135 0.06772122
000380 fd 2f 8c 3c 24 72 d8 bb 01 82 27 bd 53 b3 b2 bc
       0.017112726 -0.0066054035 -0.040895466 -0.021814024
000390 bb 83 ed bd 14 4a aa 3c 7d e3 92 3d ee 8f 24 3d
       -0.11597391 0.020787276 0.07172296 0.040176325
0003a0 5e 51 cf 3d 28 58 f7 3c 56 89 05 3e 11 47 dc bd
       0.101229414 0.030193403 0.13040671 -0.10755742
0003b0 3e 9a 76 3c 11 c8 db bc 94 2c ab bc d6 65 fc 3d
       0.015051423 -0.026828798 -0.02089528 0.12324111
0003c0 4e db 96 3b 76 0c b9 bc 36 a7 98 bd 93 4b 15 3d
       0.00460378 -0.02258895 -0.07453768 0.036449026
0003d0 cf 0b d5 bc be 5d cf bc c2 1b 57 bc d3 67 11 bc
       -0.026006607 -0.025313254 -0.013129177 -0.008874851
0003e0 d8 1b cd bd d6 db 60 b9 b4 40 e7 bc 1d e1 cf bd
       -0.100150764 -0.000214442 -0.028229095 -0.10150359
0003f0 73 b4 65 bd b0 b7 6f bd b8 58 b9 bd 37 90 2c bd
       -0.056080293 -0.058524787 -0.09050125 -0.04212972

fc.2.bias f4 [84]
000000 5b f2 3f 3d 25 36 c7 3d c4 49 95 bd 0b b8 31 3d
       0.046861988 0.09727124 -0.0728946 0.043388408
000010 ad 04 0e 3e b3 fd b5 3d 13 b4 aa bd 48 45 13 3d
       0.13868971 0.0888628 -0.08335128 0.035954744
000020 8d 9d da 3d 85 bd a3 bd 45 e0 58 3b 1c 99 31 3d
       0.10674582 -0.07995132 0.003309266 0.043358907
000030 4b bf a6 bd c3 c5 07 3d 01 0d b2 3d 2e 85 db bd
       -0.08141955 0.033147585 0.086938865 -0.107187614
000040 96 7d bf 3c 6d 4e 96 bd 75 82 70 bd 23 85 93 bc
       0.023375314 -0.07339177 -0.058718164 -0.01800782
000050 fc 68 9e bd b4 8d 17 bc db c7 93 bc db 59 ca 3d
       -0.07734868 -0.009250093 -0.018039634 0.0988042
000060 4b ed 5c 3d 6b 2f b5 bd 03 8c ea 3c 6c 42 68 bd
       0.053937238 -0.08846935 0.028631216 -0.05670397
000070 3c f2 a2 bd b3 89 0d 3d 07 43 a3 bd 64 b2 56 3d
       -0.07956359 0.03455515 -0.07971769 0.05241622
000080 44 2a fe bb 28 92 3a 3c 6c c4 86 3d 98 fb 86 bd
       -0.0077565033 0.011387385 0.06580433 -0.065909564
000090 a7 99 05 bd 81 ee ee 3d 8d 90 1a bd 88 d3 de 3d
       -0.032617237 0.11666585 -0.03773551 0.1088019
0000a0 36 15 f4 3d 6b 8b fa 3b b0 10 c3 3b 9b b9 29 3d
       0.11918108 0.0076460144 0.005952917 0.041436773
0000b0 fc 3c 55 3b 2d de bd bc a1 11 d7 3d cb 4f a7 3d
       0.003253757 -0.02317723 0.10501409 0.08169516
0000c0 59 b3 95 3d 94 c4 ed 3d 16 a1 50 bd a2 bf 12 bc
       0.073095985 0.1160976 -0.050934874 -0.008956822
0000d0 b5 cd 92 bd 01 04 84 3d 34 f9 49 bc a8 a7 14 3c
       -0.07168142 0.06446076 -0.012327481 0.0090731755
0000e0 ee 17 db 3d bb f7 56 bd 23 f9 4c 3d e0 8d 5f 3d
       0.106979236 -0.052482348 0.050042283 0.054578662
0000f0 e9 2e 80 3c a8 05 2e bd 72 9d a1 3d 85 ed bb 3c
       0.015647369 -0.042485863 0.078913584 0.022940407
000100 df 25 87 3d e5 e5 4f 3d 8e 4f 8d 3b 53 bd 10 bd
       0.0659902 0.050756354 0.004312462 -0.035336804
000110 55 b2 d3 3d df 6e 13 bd 32 a7 8c 3d 08 1d 16 3d
       0.103367485 -0.035994407 0.068678275 0.03664878
000120 f8 b7 59 bd 51 73 7b 3c cb 92 11 3d a3 f5 6a 3d
       -0.053153962 0.015347318 0.035540383 0.057363164
000130 fc f1 36 3c 23 4e 04 bd 57 63 4e bc 4c 27 a8 bd
       0.011166092 -0.03230108 -0.012596927 -0.0821062
000140 4f 7b 97 bd d7 d6 c4 bc 23 4e 40 bb 86 98 b6 b9
       -0.07396566 -0.024028225 -0.0029343448 -0.00034827384

fc.4.weight f4 [10, 84]
000000 f7 ed bd 3d 74 3a aa 3d a0 87 99 3d cd 2b 03 bd
       0.09273904 0.0831193 0.074965715 -0.032024194
000010 ef d7 30 3d a6 9b 39 bc 42 5f da bb 39 ac aa bd
       0.04317468 -0.011328613 -0.0066641876 -0.0833363
000020 21 19 a4 bd 6b a2 bb 3d f8 1b b7 bd 28 d4 0c be
       -0.080126055 0.09161838 -0.089408815 -0.13752806
000030 70 72 dd bd 49 e9 0b 3e 9e 9c f7 3d 2c 58 de bd
       -0.10812843 0.1366321 0.12090419 -0.10856661
000040 1b 92 9e bd 20 ee ca 3c f9 dc 2e 3d 99 70 62 3d
       -0.07742711 0.02477175 0.042691205 0.055283163
000050 20 64 6a bd 82 ee 98 3d 9a 84 35 3d 92 45 26 be
       -0.057224393 0.07467367 0.04431591 -0.16237476
000060 ab 70 6f 3d 91 7d 4d be 87 17 7f bd 93 70 29 3d
       0.058457058 -0.20067431 -0.062278297 0.041367125
000070 fb 63 14 3e 3b 7b 15 3d 06 2c 41 be 15 3f 25 be
       0.14491265 0.036494475 -0.1886445 -0.16137345
000080 6a 7a 49 bd c9 af a1 3d 9e 28 b6 bc d4 24 29 3d
       -0.04918901 0.078948565 -0.022236165 0.041294888
000090 4f 84 79 3a e6 82 d3 be 0e 11 3d bd 44 bb c5 bd
       0.00095183117 -0.41310805 -0.046158843 -0.09654859
0000a0 8c b4 db bd 96 ca 26 be 1b f4 39 3d 81 6a 0b 3e
       -0.10727796 -0.16288218 0.045398813 0.13614847
0000b0 6a db 23 be 2c 5b d5 bd 6f 2b 59 bd 0a ef 79 bc
       -0.16001669 -0.1041778 -0.053019937 -0.015254745
0000c0 dd c6 d1 bd 24 84 f3 bd 22 28 02 3e 7a 28 09 3e
       -0.10243008 -0.11890438 0.12710622 0.13394347
0000d0 6a 8e a9 bd 15 18 95 bd a4 cf 24 3d 1b 90 c6 bd
       -0.082791165 -0.07279984 0.040237084 -0.09695455
0000e0 5f 55 a4 3c 1e b2 17 3e 71 b1 d5 3d 6e ac 14 3e
       0.02006024 0.1481404 0.10434235 0.14518902
0000f0 76 1f 09 be 5e 4e dc 3d a7 cd e5 bc a5 7f 03 bd
       -0.13390908 0.10757135 -0.028052164 -0.032104153
000100 b2 06 91 ba c8 06 75 bd 65 4a f0 bd 30 c9 68 bd
       -0.0011064617 -0.05982092 -0.1173294 -0.056832492
000110 68 43 21 3e d2 24 1b be 0a 8a 5e bd f0 9b c5 bd
       0.1574837 -0.15150765 -0.054330863 -0.09648883
000120 d2 df 28 3e 04 b5 01 3e 5e 1c 8f bd 69 3c cd bd
       0.1649163 0.12666708 -0.069878325 -0.10021288
000130 14 c0 86 bd 1a 69 27 3d 4d d2 bf 3d 69 a8 ac 3d
       -0.06579605 0.040871717 0.093662836 0.08430559
000140 66 fd ca bd 49 2e e8 bd a9 28 c1 3d b0 e4 37 3e
       -0.09911613 -0.11336953 0.094315834 0.17958331
000150 a9 51 1e 3d bd 3e fe bd 6b 5a aa ba 4f 54 67 bd
       0.038652096 -0.1241431 -0.0012996917 -0.056476887
000160 84 33 17 3e 9e 28 1b be 84 f4 80 bd 73 57 3c be
       0.14765745 -0.15152213 -0.06296638 -0.18392734
000170 78 74 c4 3c 56 80 b6 bd 5c e3 c5 3d 3b 83 1c 3e
       0.023981318 -0.08911197 0.09662506 0.15284435
000180 74 db 74 bc aa ca 2b be 6d 41 b0 3d e2 e7 a4 bd
       -0.0149449 -0.16776529 0.08606229 -0.08052041
000190 8d 60 d5 3d 84 26 84 bc 36 d0 04 3e d3 9c e2 3d
       0.10418806 -0.016131647 0.12970051 0.11065068
0001a0 d2 72 8c bd 5b c3 8d bd b2 f4 eb bd 41 13 51 bd
       -0.06857838 -0.06922027 -0.11521281 -0.051043753
0001b0 1b 17 85 bd 8e fd 1d 3e b6 b4 16 3e 31 12 c6 3d
       -0.06498548 0.15428755 0.14717373 0.096714385
0001c0 27 79 14 3d 39 e9 19 3e f6 0f 66 3e 3b 5b 2b 3a
       0.036248352 0.15030374 0.22467026 0.0006536727
0001d0 56 41 92 3d 57 ff 03 be e3 a8 13 3d 75 2d 46 bd
       0.07141368 -0.12890373 0.036049735 -0.048383195
0001e0 64 05 d0 bc 23 b4 32 be 84 c7 c3 3d ff 6c 03 3e
       -0.025393195 -0.17451529 0.09559539 0.12834547
0001f0 c8 28 0c 3e 53 25 dd bd 98 8e a6 3d a2 cc b8 bd
       0.13687432 -0.10798135 0.08132666 -0.090234056
000200 cc 60 08 3e 6e 48 26 bd 56 9e ab 3d 4d 70 d7 3d
       0.13318175 -0.040596418 0.083798096 0.105194665
000210 e5 ca e7 3b a8 0c 43 bd 80 a1 87 3c 46 a3 56 bd
       0.0070737475 -0.04761949 0.016556501 -0.052401803
000220 d6 02 62 bb fd 53 5e 3c c2 35 de 3d 15 d0 2e bd
       -0.0034486554 0.013569829 0.10850097 -0.04267891
000230 a5 3d 06 be 96 85 03 be 34 42 d8 bc 9e 8c 6e bd
       -0.13109453 -0.12843928 -0.026398756 -0.05823957
000240 20 7a e3 bd bc 61 10 be e9 e6 bf 3b af 3f 88 bd
       -0.11107278 -0.14099783 0.005856384 -0.06652772
000250 f8 92 ca 3d a3 08 56 3d 85 46 e5 bc 85 70 07 be
       0.09891313 0.05225433 -0.027987728 -0.13226517
000260 e9 ed dd bd 5b 18 e0 3d de 01 07 3e 4a 46 00 be
       -0.108363934 0.109421454 0.13184306 -0.12526813
000270 55 55 db 3e b6 1e a4 3c 4f 39 1d bd 37 e7 95 bd
       0.4283854 0.020034175 -0.03838473 -0.07319491
000280 ab 0e ad bb db 30 94 bd d1 ba 2f 3e c0 be 11 be
       -0.0052812896 -0.07235881 0.17161109 -0.14232922
000290 40 cf 2b be ad 6f c7 bd 68 2d f7 bc f7 af 01 3e
       -0.16778278 -0.09738097 -0.030173019 0.12664782
0002a0 32 11 0c 3e d9 8d 4e bd bc 28 5f bc 0f ff 29 be
       0.13678434 -0.050428245 -0.013620552 -0.16601203
0002b0 c4 ac 90 bd 83 6b 29 3e bf 1f 98 bd d3 e2 a9 3d
       -0.070642024 0.16544919 -0.0742793 0.082952164
0002c0 ce bc 26 3e fc b3 b9 bd 5b b8 2c bd 6d 9c ff 3d
       0.16282961 -0.090675324 -0.042168003 0.12481008
0002d0 e8 46 df bd 69 8a 40 bd 3a 48 1c be 08 59 4a 3d
       -0.10902196 -0.047007 -0.15261927 0.049401313
0002e0 96 b5 d0 3d 2c 04 cd 3b f1 53 27 be f1 4b 34 bc
       0.10190885 0.006256601 -0.16340615 -0.011004434
0002f0 08 98 ac bd d9 89 b8 3d be 21 c9 bd 6f 83 1a 3e
       -0.08427435 0.09010667 -0.09820889 0.150892
000300 f5 9c fe 3d 62 48 d3 3d 02 28 86 3e e1 99 88 bd
       0.12432281 0.1031654 0.262024 -0.06669975
000310 a1 84 94 bd 64 0d 73 3d 66 21 ef 3d b2 6a a2 bd
       -0.072518595 0.059338942 0.11676292 -0.07930507
000320 4b 55 d4 3c 18 db 86 3d 80 1f 1b 3e 0a 8b 0b bd
       0.025919577 0.065847576 0.15148735 -0.034068145
000330 72 dc ca bd 83 a3 f2 be 9b e3 35 3d 12 e9 d8 bd
       -0.09905328 -0.47390375 0.044406515 -0.1059133
000340 dc 76 8b 3d 94 8c 8c bd 32 fe f1 bd 9c da 0f be
       0.0680978 -0.06862751 -0.11816062 -0.14048237
000350 7f 6a c5 3b eb 51 9d 3d 18 64 bd 3d ac 37 16 be
       0.006024658 0.0768164 0.09247607 -0.14669675
000360 e6 d1 c3 bd e7 3f e3 bc 5c 33 12 3e 5c ce 07 3e
       -0.09561519 -0.027740432 0.14277405 0.13262314
000370 f2 bb 18 bd 84 1a bd 3d 88 e5 51 bd f5 43 f9 3d
       -0.037288614 0.09233573 -0.05124429 0.12171165
000380 e3 4a 52 3d 26 96 b3 3d 0d 85 05 bd bf 54 50 bd
       0.05134095 0.08768873 -0.03259759 -0.05086207
000390 3d 29 20 be 49 be 97 3d a0 e0 12 be bd 08 50 bd
       -0.15640731 0.07409341 -0.143435 -0.050789583
0003a0 b7 dd 20 be 36 b2 fc 3d e6 94 bf 3d d7 32 22 be
       -0.15709578 0.123386785 0.09354572 -0.15839706
0003b0 04 32 2a bd e1 28 f7 3c 52 ea 88 3d e5 fb 84 3d
       -0.041551605 0.03017086 0.06685318 0.064933576
0003c0 d3 63 77 3e e4 d4 a9 3c 18 e0 ce bd 2c 65 f5 bd
       0.24159174 0.020731397 -0.10101336 -0.11982188
0003d0 dc e0 18 be 15 2b e2 bd bb 8c ae bb ac 09 9e bd
       -0.14929527 -0.110433735 -0.005326835 -0.077166885
0003e0 48 c7 38 be 1e 58 db bd 0c d6 10 be ca 18 fd bd
       -0.1804477 -0.107101664 -0.14144152 -0.12358244
0003f0 21 c6 0c be 40 d9 e6 bd ff 9a 28 bd 58 72 0f 3e
       -0.13747455 -0.11271906 -0.04116344 0.14008462

fc.4.bias f4 [10]
000000 4e 48 43 bd e9 a8 45 3d 20 dd b0 bd 4b 7f 18 bd
       -0.047676377 0.04825679 -0.08635926 -0.03723077
000010 25 f8 80 bd 8b 70 cb 3d 01 ba eb bd 88 82 73 3d
       -0.0629733 0.09933575 -0.11510087 0.059450656
000020 84 a6 46 bd af 87 af bc
       -0.048498645 -0.021427004
