LeNetRecog/LeNet_learnt.pth (torch_old, 248484 bytes, 10 tensors)

conv.0.weight f4 [6, 1, 5, 5]
000000 e3 29 45 be 61 e5 74 be cf ad ae bd 2f 3d 90 3d
       -0.1925426 -0.23915626 -0.08529245 0.0704292
000010 96 9f 51 bd 88 96 c6 3c 83 34 89 be ac 1e fd bc
       -0.051177584 0.0242417 -0.26797876 -0.030898415
000020 44 ad c5 bd a9 be 01 3e c3 a6 53 be 8f 3a a5 3c
       -0.096521884 0.12670387 -0.20669083 0.020169524
000030 5b 3a cd 3d 06 ca 16 3e aa b2 19 be 9b a1 6c bd
       0.10020896 0.14725503 -0.15009561 -0.057771306
000040 8c f3 45 be 42 88 e4 3d 8a 87 b7 bd 90 26 80 3c
       -0.19331187 0.111588016 -0.08961399 0.015643388
000050 38 be 2b be 6d e4 a1 bd 26 e3 16 3e f0 14 27 3e
       -0.16771781 -0.07904897 0.14735088 0.16316581
000060 4a e0 79 3e 9f a1 9b be f9 03 d1 be b6 ff b7 bc
       0.24401966 -0.30396745 -0.40823343 -0.0224608
000070 e6 71 40 be ab 1e 71 bd 5b 73 13 bd 9d 2f 3f bd
       -0.18793449 -0.058867138 -0.035998683 -0.046676267
000080 75 64 fb 3c 0f d2 2c be 31 cb 09 3e c6 59 5c be
       0.03068755 -0.16877006 0.13456418 -0.21518621
000090 a4 34 4a bd 3a 7c c5 bd 10 fe 68 b8 98 9f 8b 3d
       -0.04936661 -0.09642835 -5.5549724e-05 0.068175495
0000a0 ba e6 9e 3d ab 30 39 bc e0 03 a9 bd 24 9a 1c 3c
       0.07758851 -0.011303107 -0.08252692 0.009558234
0000b0 60 7b 3b 3e 6a f9 95 3d 42 fa 62 3e 3f 60 91 3d
       0.18308783 0.073229626 0.22165778 0.070984356
0000c0 35 21 18 3e f4 6c fb ba d6 0b b1 bd ee a2 40 be
       0.14856417 -0.0019182251 -0.08644836 -0.18812153
0000d0 71 f1 99 bd 5f e0 70 be 85 e5 32 be 93 32 54 be
       -0.075167544 -0.23523091 -0.17470367 -0.20722418
0000e0 cf 0c 5c bb 94 00 ca 3d 9c 2c 4f 3d 95 a2 c0 bd
       -0.003357697 0.098633915 0.050579652 -0.0940601
0000f0 f7 36 2f 3d 66 85 13 3e 6f 7f bf 3c b4 0d 55 3e
       0.042777028 0.14406356 0.023376195 0.20806009
000100 5c c0 27 bd 33 2f 6f 3d 6b 2b c2 3d 15 ec 4a 3b
       -0.040954933 0.058394622 0.094809376 0.003096347
000110 b6 26 f5 bb aa c8 44 3e 8d 95 b7 3c b6 76 bd 3c
       -0.0074814213 0.19217172 0.022410179 0.023127895
000120 1f 42 35 3e 3a da 61 3d 06 46 92 3d 53 2f 81 bd
       0.17701004 0.055139758 0.07142262 -0.063078545
000130 dc cb 6c 3e 79 d5 84 bc 0e cb b8 bd fe f3 a2 3d
       0.23124641 -0.016215073 -0.090231046 0.07956694
000140 97 4b 9c 3d d0 af 02 3d af 73 80 3e 3c 76 7d 3e
       0.07631605 0.03190595 0.2508826 0.24752134
000150 af a5 70 bb 01 ab 79 3d 35 6d 06 be 4a 1e 55 3e
       -0.003671985 0.060954098 -0.13127597 0.20812336
000160 5d e0 be bc e9 30 11 3e d4 a1 bd bd 70 eb 50 3e
       -0.023300344 0.14178814 -0.09259382 0.20402312
000170 fa 87 02 bd 3d a7 28 3e 35 50 3a bc 94 c9 4d be
       -0.03186796 0.16470046 -0.011371662 -0.20096427
000180 58 52 86 3a 46 69 a3 bd 30 ab 74 be 5b 38 89 be
       0.0010247929 -0.07979064 -0.23893428 -0.26800808
000190 05 1d 87 3d ad d6 18 be 56 c4 5f be a2 01 70 3c
       0.06597332 -0.14925642 -0.2185224 0.014648827
0001a0 b4 31 23 be db b9 4b bd c3 17 a1 bb 29 ad c8 3d
       -0.15936929 -0.049737792 -0.0049161627 0.09798653
0001b0 d1 e7 aa ba 12 bc c2 bd 21 fc 53 bc 90 f7 b4 bd
       -0.0013039057 -0.09508528 -0.01293853 -0.08836281
0001c0 cd 83 c2 bd a4 05 f1 bc 15 c1 29 3d c2 d3 0c 3e
       -0.09497795 -0.029421635 0.041443903 0.13752654
0001d0 69 82 4e 3e 05 7b fa 3e ac 9f 80 3e 7c c1 1e 3e
       0.20166935 0.4892198 0.2512182 0.15503496
0001e0 84 3a 2e bb e0 a4 03 3e 05 48 9a bd 45 65 c4 bd
       -0.002658517 0.12855864 -0.07533268 -0.09589628
0001f0 fd 20 c7 3d d3 0a 29 3d 89 66 a3 3d 5e 41 32 3e
       0.09723089 0.04127009 0.079785414 0.17407748
000200 ef 1a f4 3d c6 38 f2 3d c6 4b 82 ba d2 9b 83 3e
       0.119192 0.11827235 -0.0009940795 0.2570482
000210 e2 81 bd 3d 51 e5 08 3e 28 d6 ac 3d 39 f0 26 3c
       0.09253289 0.13368727 0.084392846 0.0101891095
000220 3c ee 34 3d 92 7d 90 bd 39 1f 94 bb 4f 12 8e bd
       0.04417251 -0.07055201 -0.0045203236 -0.06937086
000230 91 f9 9e bd c6 47 99 3d 00 8e 1e 3e 2f 33 a7 bd
       -0.07762445 0.07484393 0.15483856 -0.08164059
000240 6e 8b ff bd e0 e8 eb bd 10 3e 82 be ac 09 a1 be
       -0.12477766 -0.11519027 -0.25437975 -0.31452692
000250 c3 e9 4f 3b fd 2f 5a bd
       0.0031725026 -0.05326842

conv.0.bias f4 [6]
000000 a6 60 63 3d 33 6c d6 bd c4 e3 0a 3e c7 1b 2d be
       0.055512093 -0.10469856 0.13563448 -0.16905127
000010 a9 c4 0b 3e 71 09 06 3c
       0.13649239 0.008180962

conv.3.weight f4 [16, 6, 5, 5]
000000 56 c5 92 bc f0 f4 ae bd 78 cd 1c be 3a 30 70 be
       -0.017916363 -0.08542812 -0.15312755 -0.23455897
000010 f3 89 1d be bf 97 72 3e cd 83 df 3d fd 5d df 3c
       -0.15384655 0.23690699 0.10913811 0.027266497
000020 aa 8c d1 bd 7f a5 a2 bc 77 f5 69 3e 59 99 5a 3e
       -0.10231908 -0.019854305 0.22847544 0.2134756
000030 18 69 00 3e b8 13 9f 3d 74 95 93 3d 16 5b 0f 3e
       0.1254009 0.07767433 0.0720624 0.1399959
000040 bd e8 17 3e f2 89 3d 3e ac 6e ff 3d bd d7 25 3e
       0.14834876 0.18509653 0.12472281 0.16195579
000050 96 be 36 3e 28 d2 2b 3e 47 bf 14 3e 1e 7b 2d 3e
       0.1784614 0.16779387 0.14526092 0.16941497
000060 19 02 b7 3d 14 89 4f 3e 04 53 53 3e 04 e3 f8 3d
       0.08935947 0.20267135 0.20637137 0.12152675
000070 6d 70 c9 3d 20 9b c7 3d 7a cf 48 3e 31 b6 8a 3e
       0.09835897 0.097463846 0.19610396 0.27092126
000080 5b a5 ed 3d 43 40 fc 3d 5f dc 9a 3d a1 ad 68 3e
       0.11603805 0.123169445 0.07561564 0.22722484
000090 59 24 39 3e 35 51 41 3e 25 b2 1f 3e 9c 7d d2 3d
       0.18080272 0.18878634 0.155953 0.10277864
0000a0 ae 1a 29 3e ca 60 af 3d 9b 3a e9 3d 1d b4 24 3e
       0.16514084 0.08563383 0.11388131 0.16084333
0000b0 7f 97 06 3e 82 04 0b 3e 48 3f 2d 3e b5 ce 38 3e
       0.13143729 0.13575938 0.16918671 0.18047602
0000c0 1e 57 c1 3d f5 50 45 3e b5 9f 5e bd c7 aa 45 be
       0.094404444 0.19269164 -0.054351527 -0.19303428
0000d0 c4 d4 14 be d4 c4 5c be 87 3f 52 be 2d 68 c7 bd
       -0.14534289 -0.21559459 -0.20532046 -0.09736667
0000e0 11 2a 83 be b7 02 82 be d0 35 81 be a3 5a 46 be
       -0.25618032 -0.25392696 -0.25236368 -0.19370513
0000f0 92 8e bd 3b 96 f6 1a be db 68 63 be 38 50 8a be
       0.005784818 -0.15133128 -0.22207968 -0.27014327
000100 85 4b 59 bd 78 a3 ae bd 11 54 2b be dd 7c 33 be
       -0.053050537 -0.08527273 -0.16731288 -0.175281
000110 d4 61 08 bc b2 85 fd bb f3 c6 f7 3d 6c 1c 08 3d
       -0.008324105 -0.007736885 0.120984934 0.03323023
000120 66 7c 0e 3d 88 62 c2 3d 9b 92 b9 3c 89 fb 6b 3d
       0.034786604 0.094914496 0.022652915 0.05761293
000130 a5 ef 8c 3d b8 f9 b3 3c b1 0f bd 3d 2a 64 4e 3e
       0.06881646 0.021969661 0.092315085 0.20155397
000140 2b 55 ea bc 28 70 49 bc 8b f2 af bc 1f 3a 05 bd
       -0.028605064 -0.012294807 -0.021477958 -0.03252613
000150 da e7 fa bd 33 fd 9a bc 87 c9 7d bd 3a fc e3 bd
       -0.122512534 -0.018919563 -0.06195977 -0.11132093
000160 62 70 ec bd 76 b6 23 be 7a d2 ad 3d aa eb a9 bd
       -0.11544873 -0.15987572 0.08487411 -0.082969025
000170 46 06 dc bd 77 33 1f be bd a4 57 bd f8 7f b0 3d
       -0.10743384 -0.15546976 -0.05264734 0.08618158
000180 03 bb f0 bd eb 70 42 bd 15 40 91 3d 32 5e 31 bd
       -0.1175442 -0.04747097 0.07092301 -0.043302722
000190 ff 1b 1d 3e d7 98 95 bc be b1 41 be e5 6d 7d be
       0.15342711 -0.018261356 -0.1891546 -0.24748953
0001a0 af 4b 8a bd 1c e1 9c 3d 83 a3 9e 3d d0 52 e1 bd
       -0.06752717 0.07660124 0.07746031 -0.11002123
0001b0 10 9d 4a be 00 3c 75 be 7c 3b 63 3d 20 f5 cb 3d
       -0.19786477 -0.2394867 0.05547665 0.09958863
0001c0 08 e0 c2 bc 9b a7 0b be d7 d0 e5 bd af 09 37 3e
       -0.023788467 -0.13638155 -0.11221474 0.17874788
0001d0 5e 70 28 3d 33 28 80 3d aa 65 96 bc d1 c8 bd bc
       0.041122787 0.062576674 -0.018359024 -0.023167046
0001e0 14 0d 93 3d 0e 0c 01 3e 44 e9 8f 3d 98 1d a8 3d
       0.07180229 0.12602255 0.07026914 0.082087696
0001f0 81 c4 2c 3e 2f 11 d2 bc e2 60 d1 3d bd 0c 21 3c
       0.16871835 -0.02564296 0.10223557 0.009829697
000200 b3 12 46 3d a4 4d b1 3c bb eb 96 3c 2b 82 15 bc
       0.048357677 0.021643467 0.018422952 -0.009125273
000210 1e 50 8c 3c 0e ab d5 3d 37 a3 5f 3d 2e 04 16 3d
       0.017128047 0.10433017 0.054599013 0.03662508
000220 7f 23 a3 3d 1c e8 bd bc a0 c7 48 be 8b f7 55 bd
       0.07965755 -0.023181967 -0.19607401 -0.05223803
000230 29 70 3d 3e f1 d4 7b 3d 58 41 b9 bd 7d fe f0 bd
       0.18499817 0.061482374 -0.090456665 -0.1176729
000240 30 35 51 bd 8e 1a 16 3e b0 0c 9c bd 5c 7e 81 bd
       -0.051076114 0.14658567 -0.076196074 -0.06322929
000250 6f e4 05 be 43 1d 2d 3d 15 ab fc bc 9b 95 cb 3d
       -0.13075422 0.042264234 -0.030843297 0.09940644
000260 c9 70 fc bc 89 7b bc 3d 02 38 da 3d fe dd 3a 3e
       -0.030815499 0.0920325 0.10655214 0.18248746
000270 93 2d 42 3e 76 d8 69 3d 27 32 82 3d 14 0b 53 3e
       0.18962698 0.0570912 0.06357222 0.20609695
000280 f9 5a 9d 3d 5e 84 45 3e 1d 1b 16 3e f8 49 2e 3e
       0.07683367 0.19288775 0.1465878 0.17020404
000290 6d 30 5b 3e 4f 00 72 3d 26 5d 1e 3e 36 ad c7 3c
       0.21405192 0.059082326 0.15465221 0.024374586
0002a0 f0 7e 6d 3e ed d3 42 3e cd 11 eb 3d 4f f3 f0 3d
       0.23192954 0.19026156 0.114780046 0.117651574
0002b0 40 f0 a4 3d 0c 2b 33 3e 09 48 49 3d 33 97 b2 3d
       0.080536366 0.1749689 0.049140964 0.08720245
0002c0 46 9a 41 3e bd aa 63 3e 4f 3c 36 3e ca 76 36 3e
       0.18906507 0.222331 0.17796443 0.17818752
0002d0 be 54 a2 3e 7d ac 33 3e 4c 26 0f 3e 28 2a 66 3e
       0.31705278 0.17546268 0.13979453 0.22477019
0002e0 8b 46 74 3e 21 95 2d 3e ec 21 22 3e ec a9 37 bc
       0.23855035 0.1695142 0.15833253 -0.011209946
0002f0 fd 12 95 3d f9 aa 02 3e e5 5b a7 3d 02 d4 22 bd
       0.07279012 0.12760533 0.08171824 -0.039752968
000300 03 7d 5c 3d 27 6b 0c 3d d5 00 3e 3e cb 75 56 3c
       0.053830158 0.034281876 0.18555005 0.0130896075
000310 df 29 18 3e 4a e6 45 3e 00 c2 0c 3e 03 02 c5 3d
       0.14859723 0.1932613 0.1374588 0.09619524
000320 7a 20 30 be f3 d7 34 be 00 d4 c5 bd ce 2b 96 bd
       -0.17199889 -0.17660503 -0.096595764 -0.07332574
000330 73 6d 41 3d 57 f8 19 be f5 c0 76 bd 7f b2 df bd
       0.04722352 -0.1503614 -0.060242612 -0.10922717
000340 60 28 b6 bd 48 bd 91 3c f3 eb c9 bd 1f 8b 21 be
       -0.0889442 0.017790452 -0.09859457 -0.15775727
000350 dc 4e 02 be fd e2 5e bd 04 97 01 3d 91 d1 1f 3c
       -0.12725395 -0.05441569 0.03163816 0.009754554
000360 15 25 14 bd 3b 6d 01 be 5e 4a 16 be 0a c1 af bd
       -0.036168177 -0.12639324 -0.14676806 -0.08581741
000370 d2 42 e6 bc 7a b3 da bd f7 78 13 be d2 a3 1e bd
       -0.028108034 -0.10678764 -0.14401613 -0.03873045
000380 9d ff ab 3b 53 6b a2 be b0 8c 42 be db 0b 44 be
       0.0052489773 -0.31722507 -0.1899898 -0.19145148
000390 27 bf 73 be a8 4f 2f be 73 ef 22 be 15 49 ef bd
       -0.23803388 -0.1712023 -0.15911655 -0.11683861
0003a0 e0 ab 33 be 32 a6 67 be f8 63 8a bd 19 37 15 be
       -0.17546034 -0.22621992 -0.06757349 -0.145718
0003b0 9f 72 bf 3b ae 4b 01 bd e7 60 ac 3c 49 4b 20 3c
       0.0058425213 -0.031566314 0.0210423 0.009783574
0003c0 c0 a9 bc bd 1c 53 6b bd 8f 0b c6 bd ee 69 9b 3d
       -0.09212065 -0.057452306 -0.096701734 0.07588564
0003d0 33 3c 63 3d 31 ef 82 bc 44 48 1f be d3 07 7f bd
       0.055477332 -0.015983196 -0.15554911 -0.06226332
0003e0 ec 02 a2 bd 2d 20 65 3c 1c 1a 74 3d 3d 85 54 be
       -0.079107136 0.013984722 0.059595212 -0.20753951
0003f0 5c ea 22 be 76 9c 67 be 90 6f 98 bc 08 8d f5 3d
       -0.15909714 -0.22618279 -0.018607885 0.1198979

conv.3.bias f4 [16]
000000 91 80 b1 3c c1 d3 e8 3d 70 87 af 3a 03 8e fb 3d
       0.02166775 0.11368514 0.0013391804 0.12282946
000010 98 f8 19 bd 6c 5c c8 bc d4 f4 19 3e 2b 20 f7 bc
       -0.037590593 -0.024458133 0.15034801 -0.030166706
000020 a0 13 8e 3d 21 e6 d5 bd e5 9b 31 bc 96 58 cc bb
       0.06937337 -0.10444284 -0.010840391 -0.006236146
000030 81 d9 c8 3c 80 77 46 3d c5 29 68 3d e0 9b 72 3c
       0.024517776 0.048453808 0.05668046 0.014807671

fc.0.weight f4 [120, 400]
000000 63 09 4f bc 53 dd 3f bc e0 cd a5 bd ea ba da bd
       -0.012636515 -0.011710483 -0.08095908 -0.10680182
000010 cb 58 76 bc 36 d8 90 3d 57 4a 08 3c df b5 0a bd
       -0.015035818 0.07072489 0.008318505 -0.033864852
000020 08 da c1 bd f8 6b 47 be 92 29 2a 3d 25 db a5 bd
       -0.09465414 -0.1947478 0.04154355 -0.08098439
000030 e2 07 a8 3d 08 13 a4 ba e3 e7 4c bc f0 63 b7 3d
       0.082046285 -0.0012517879 -0.012506458 0.089546084
000040 ad 25 0a 3e 30 3c 0b 3d 24 98 4b be 88 61 a8 3d
       0.13490935 0.033992946 -0.19882256 0.082217276
000050 63 89 d3 bd 19 16 a5 3d 0b ea 46 3d 21 c5 ee 3b
       -0.10328939 0.080608554 0.048563045 0.007286683
000060 92 93 e5 3d 7e 61 6b 3d 0a 01 23 3d 5c aa 4b 3d
       0.112097874 0.057466023 0.039795913 0.049723014
000070 ba 09 26 3d 8e 60 67 bd 1a e9 b8 bc 6f 3c 48 3d
       0.04053662 -0.056488566 -0.022572089 0.04888576
000080 f8 76 f1 bd 4b 6b 41 be 01 30 08 be 95 ab 86 3d
       -0.117902696 -0.18888585 -0.13299562 0.065756954
000090 b9 a1 28 3d bc 96 27 bd 00 0a 98 bc 29 72 b3 bd
       0.041169856 -0.040915236 -0.018559456 -0.08762009
0000a0 3d 3a 93 b9 d6 18 da bd 16 c9 86 bd 59 94 ef 3c
       -0.00028081416 -0.10649268 -0.06581323 0.029245542
0000b0 ab 23 6f 3d 27 49 c4 bc 41 6b 04 3e 4d d0 c1 3d
       0.058383625 -0.023960663 0.12931539 0.09463558
0000c0 77 6c 1a bc 70 d3 58 3c ce df 8a 3d 44 cf 0b bd
       -0.009425274 0.013234004 0.067809686 -0.03413321
0000d0 99 2f e6 3d d6 26 85 3d 77 32 e7 3c 22 2c 73 bc
       0.11239547 0.06501548 0.028222306 -0.014842065
0000e0 37 f7 21 3c 51 75 9c 3d f1 e8 86 bd 9c 49 59 3d
       0.009885601 0.07639564 -0.06587399 0.053048715
0000f0 7e e0 45 3e 6d be 0f 3e 47 e1 fe bd 45 4b 39 3d
       0.19323918 0.14037485 -0.12445312 0.0452378
000100 1e 26 61 3c c5 c3 31 3d 11 12 73 bd af 6a 3e 3e
       0.013741998 0.04339959 -0.0593434 0.18595384
000110 68 d5 1e 3e dc 27 07 ba 8e 4d 01 bd 45 5f 03 bc
       0.15511096 -0.0005155781 -0.031568103 -0.0080183195
000120 4f 72 e1 bd 31 8f fb bd 25 b5 ed 3d eb 54 9b bb
       -0.11008131 -0.12283171 0.11606816 -0.0047403476
000130 7a 1f a7 3d 74 78 9f 3d 70 70 59 bb 75 b3 96 3d
       0.081603006 0.077866465 -0.003317859 0.073584475
000140 d9 2c 25 3d 8c 0f 1a 3e 2a 36 02 3d 51 e9 93 3d
       0.040325973 0.15044993 0.031789936 0.07222236
000150 b3 44 02 3e 4f bf 95 3d 95 18 e5 3c 69 ce 2b bc
       0.12721519 0.0731188 0.027965823 -0.010486224
000160 51 95 26 3e 88 ba 25 3b ff 74 fd 3d 86 a9 8a 3d
       0.16267897 0.0025288183 0.12375831 0.06770615
000170 0b 84 74 3e c8 2e 26 3e 99 77 8f bc db 3c 44 3e
       0.23878495 0.16228783 -0.017513083 0.1916384
000180 82 e3 71 3e 4d 56 f3 3d 02 09 04 be 7b 2e b9 bc
       0.23621944 0.11881695 -0.12894061 -0.022605171
000190 1a 09 d4 3d ea 9f bc 3d 93 d0 30 3c 3a 1e 18 bd
       0.103532985 0.09210189 0.0107919155 -0.0371382
0001a0 68 49 5a 3d 91 1a 19 bd 14 0c 84 3a e4 7a f5 3d
       0.053292662 -0.03737885 0.00100744 0.1198633
0001b0 34 e3 a9 bd b7 8d 52 bd fd 96 e3 3c fd c6 7f bc
       -0.08295289 -0.05140468 0.027781958 -0.015611407
0001c0 7d 7c e8 bd 73 bf ef bd 72 e3 17 bc 4b 2f e4 bc
       -0.11351869 -0.11706438 -0.009270536 -0.027854582
0001d0 de 85 21 be c8 de 2a bd 50 cb db 3d 74 80 11 bd
       -0.15773723 -0.041716367 0.10732138 -0.035522893
0001e0 d2 9e bb bd 81 a6 a5 3d 4b 35 13 3e 7e bf cc 3d
       -0.09161152 0.08088399 0.14375798 0.09997462
0001f0 dc dc 04 bd 57 a1 38 3c b9 b3 a8 3d c5 ce 09 be
       -0.03243719 0.011268935 0.082374044 -0.13457783
000200 14 aa de bd 84 9a 7b bd 3b 30 c8 3c 3e 6f 03 3c
       -0.108722836 -0.061426654 0.02443706 0.008022128
000210 91 e7 c6 3c 20 12 17 3e fc 7a e6 bb 2a 95 54 3d
       0.024280341 0.14753008 -0.007033704 0.051900066
000220 e1 f1 8a 3c de 4a 0e bd b1 69 cf bc 97 a5 87 3d
       0.01696104 -0.034739368 -0.025318952 0.06623381
000230 72 bf 94 bc 36 21 e0 3d fe 64 12 3d d6 43 45 be
       -0.018157694 0.109438345 0.035740845 -0.19264159
000240 bf 39 45 3d e9 7e 10 bd f2 93 81 bd 74 d4 00 be
       0.048150774 -0.03527728 -0.063270465 -0.12581044
000250 b8 be 68 bd 58 3c bd 3d 38 26 4f 3c aa 82 66 bd
       -0.05682251 0.09240025 0.012643389 -0.056276955
000260 05 9d 64 bd c0 1f 03 be 59 f4 a4 bb fe 4c d1 3b
       -0.055813808 -0.1280508 -0.0050340113 0.006387352
000270 a0 9e 3e 3d 88 a5 ff bd 56 d0 c9 bc 67 74 67 3c
       0.046537995 -0.124827445 -0.024635475 0.014126874
000280 32 62 c5 bc dd 41 99 bd f6 9c 84 bc 21 59 16 3e
       -0.024094675 -0.074832655 -0.016188126 0.14682437
000290 24 d2 ef 3c 84 0d 1f bd 3b ab 0e 3e e5 6f a8 3d
       0.029275008 -0.03883125 0.13932507 0.08224467
0002a0 ef ef 21 3c cf df 03 be 6b 13 eb bc e9 b4 89 3e
       0.009883865 -0.12878345 -0.028695783 0.26895836
0002b0 88 42 58 3e a1 70 07 be 89 c7 09 3a 83 47 61 3d
       0.2111913 -0.13226558 0.00052558683 0.05499984
0002c0 fe f4 ad 3d 46 74 a4 3d 91 58 48 3d e7 d3 bc 3c
       0.08493994 0.0802999 0.04891259 0.023050262
0002d0 46 00 1a 3d c8 75 fd 3c 20 26 0e 3d dd 55 9f bd
       0.037597917 0.030939952 0.034704328 -0.07780049
0002e0 ce 3e 2c bd e3 d1 c2 3d 47 19 3f bc a9 85 2c be
       -0.042052083 0.09512689 -0.011663741 -0.16847862
0002f0 13 a4 db bd 05 4e 1c 3e 49 01 0d bc 81 a8 c2 bd
       -0.10724654 0.15264137 -0.008606263 -0.09504796
000300 9c fc 95 3a f0 9f 9e 3d ba fa ce 3d a6 98 86 bd
       0.0011443081 0.077453494 0.10106416 -0.06572084
000310 2d b9 96 3d 80 ad 16 3e f2 01 ba 3d 2c 07 79 bd
       0.07359538 0.14714622 0.09082402 -0.060797855
000320 78 da e0 3d 73 e0 ec 3d 97 eb 00 3d dd b0 96 3d
       0.109791696 0.11566248 0.031474676 0.07357953
000330 0b 98 13 3d f4 82 38 3d e1 af ab bd ef 4a 82 3c
       0.03603367 0.04504676 -0.083831556 0.015904872
000340 2a b4 f1 3d 73 7e 4b 3c 7d a0 b9 3b 24 43 25 3e
       0.11801942 0.012420285 0.0056648836 0.16138893
000350 de 3e 43 3e 14 8d c8 bd 74 fd 8a 3d d7 82 04 3e
       0.1906695 -0.097925335 0.067866236 0.12940536
000360 9f 5a 1a 3e fd 1e 37 bd 75 52 19 b9 ae f8 43 3e
       0.15073632 -0.044707287 -0.00014621935 0.19137833
000370 42 aa 1e 3d 9d cc a6 bd 04 4b e0 bd 35 74 35 3d
       0.03873659 -0.08144496 -0.10951808 0.044300277
000380 a0 98 5b 3d d1 fb 52 3d bb 34 fb 3b 7e 01 99 3d
       0.05361235 0.051509682 0.007666198 0.07470988
000390 d8 67 5d 3e 3d 82 96 3d 0c f8 b3 3d 0b 2b 9d 3c
       0.21621644 0.0734906 0.087875456 0.019185564
0003a0 99 4c 77 3d 0b ba f8 3d 03 e4 54 3e 02 4a f4 3c
       0.060375784 0.1214486 0.20790105 0.029820446
0003b0 29 cb 7b 3e 4c e2 17 3e ae c1 bb 3d bd 78 3b 3d
       0.24589218 0.14832419 0.09167801 0.045769442
0003c0 19 b2 cd 3c 0c 3b 38 3e b7 f6 50 3c 36 32 3a 3e
       0.025109338 0.17991275 0.012754134 0.18183216
0003d0 5c 62 6b bd 68 79 a5 3d 3f e7 5e bd 38 f3 91 bc
       -0.05746685 0.08079797 -0.054419752 -0.017816171
0003e0 2c c7 20 3e bf 67 91 3d 52 e2 63 3d 93 c4 95 3b
       0.15700978 0.07099866 0.055635758 0.0045705526
0003f0 2b 8a f0 3b 8d a7 d4 3d e0 23 57 3c 90 59 93 bd
       0.0073406897 0.1038352 0.013131112 -0.07194817

fc.0.bias f4 [120]
000000 01 92 11 3d 00 90 8b bb bd 0e b8 bc 10 04 c2 3d
       0.03553963 -0.0042591095 -0.022467965 0.09473431
000010 7f 1e 43 bd 63 8e ba 3c 4c d2 f6 3c fa 07 0c 3d
       -0.047636505 0.022772973 0.030129574 0.034187295
000020 25 5b e8 bc 51 cd 12 bd 36 73 6d bc 0f 6a 40 3d
       -0.028363774 -0.035840336 -0.0144928 0.046976145
000030 80 bf 96 3c 44 89 4f 3d aa 51 4e bd 52 93 a3 3c
       0.018401861 0.050668016 -0.05037085 0.019967709
000040 58 38 27 bc 60 f6 c5 bc 16 d5 af 3c ed de 6d 3b
       -0.0102063045 -0.024165332 0.021463912 0.0036296204
000050 0a 7f 00 3d fa 00 30 bd f0 e8 1c bd 1b 6d 2b bd
       0.031371154 -0.04296968 -0.038308084 -0.041852098
000060 80 24 c1 3c 11 d6 02 3d 91 c7 3c bd f1 2f 04 bd
       0.023576975 0.03194243 -0.04608876 -0.032272283
000070 94 72 08 bd 48 aa 14 3b 8c 11 8d bc 79 70 8d 3c
       -0.033312395 0.0022684503 -0.017220281 0.017265545
000080 2e 18 a9 bc d6 23 d1 3c 5f 62 46 3c 49 91 37 3d
       -0.020641413 0.025529783 0.012108414 0.04481629
000090 52 e6 0f 3d fd 3e 0a 3e bd 6b 15 bd 2b 48 35 bd
       0.03513176 0.1350059 -0.0364797 -0.044258278
0000a0 eb 06 2e bd e1 27 ab 3c 51 ed 17 3b 9e 57 14 bd
       -0.042487066 0.02089304 0.0023182223 -0.03621637
0000b0 38 a0 1c bd ab 86 91 3c 5b 91 dd bc 9a 92 97 3d
       -0.038238734 0.01776441 -0.02704685 0.07401009
0000c0 68 a2 59 bd 8b 27 18 3d 63 6c a8 3d b6 fb 79 3d
       -0.0531334 0.037147086 0.08223798 0.061031066
0000d0 be 8b 0a 3d bd a5 ec bc 6e a0 49 bd 39 99 1d bb
       0.033824675 -0.028887624 -0.049225263 -0.0024047627
0000e0 6f 84 c0 bc 31 b2 e2 3d 64 a0 3a bd 00 8a 2c ba
       -0.02350065 0.110691436 -0.045563117 -0.0006581843
0000f0 07 9d 36 3d 62 17 c6 3c 7b de 1b bd c9 c5 28 3d
       0.044583347 0.024181072 -0.03805397 0.041204248
000100 9b c7 07 bc eb f2 88 bc cd 0c d8 3c ad 2e 1e bd
       -0.008287336 -0.016717395 0.026373291 -0.038618732
000110 3a 9f fa 3b 3f b6 6e 3c 69 a1 23 bd ae 8a 4d bd
       0.007648376 0.014569818 -0.039948855 -0.050181083
000120 f2 16 7a 3d c7 85 f2 3a f2 d7 a0 bc b4 3d 83 bc
       0.06105704 0.0018503004 -0.01963422 -0.016020633
000130 83 8e f7 bc 0d c9 0e bc 1a 6a d6 3c b8 5c 34 bd
       -0.030219322 -0.008714926 0.02617364 -0.044033736
000140 dc fa 64 bd 5c 63 67 bc 6c 4f 3a bc 9b d6 28 3b
       -0.0559033 -0.01412281 -0.011371475 0.002576268
000150 73 e1 33 bd 72 1c 82 3c eb de fc bc 65 b8 af 3c
       -0.043916177 0.015882704 -0.030868014 0.02145023
000160 b8 83 53 38 3f b0 b7 3c 5f 1b f3 3c f5 a6 2b bd
       5.0428993e-05 0.022422908 0.029676137 -0.04190727
000170 d8 91 cf 3b f5 58 ec 3c 8a 99 5e bd 8a 81 3c 3c
       0.0063345246 0.028851012 -0.054345645 0.011505494
000180 b4 08 14 bd 03 27 9b bc 77 76 89 bc 75 f7 9c bc
       -0.036141112 -0.0189395 -0.016780121 -0.019160965
000190 58 33 59 bd 47 a2 f5 3b 2d ee 3c bc 48 dd 2f bd
       -0.05302748 0.0074961516 -0.011531395 -0.04293564
0001a0 9c 92 0f 3d c9 20 5a 3d 7b 96 dd bc 99 5a 93 3d
       0.035051927 0.053253923 -0.027049294 0.071950145
0001b0 9e c3 4f 3c bb 29 67 3d 9b 71 b2 bb e0 ca a7 3b
       0.012680916 0.05643628 -0.0054456717 0.00512062
0001c0 5a fc ab 3d d2 0c ae 3c 6b c3 2e bd da 24 0d 3c
       0.083977416 0.021246348 -0.042666834 0.008614743
0001d0 5e d6 01 bc b1 3e d4 3d 54 0f a6 3c a6 b7 2d bc
       -0.007924644 0.1036352 0.02027098 -0.010602867

fc.2.weight f4 [84, 120]
000000 7d 22 9d 3d 0c a8 b2 3d 29 35 21 bd 89 b3 e2 3d
       0.07672594 0.08723459 -0.039357338 0.110694
000010 86 48 f1 bc 4a 91 80 3c d4 52 71 3d 44 35 c0 bc
       -0.029453527 0.01569428 0.05891688 -0.023462899
000020 80 9e 58 bd 14 09 85 bd 28 09 aa bc 90 19 90 3e
       -0.052885532 -0.06495872 -0.02075632 0.28144503
000030 12 b7 77 bd ce dc 24 3e 2c 21 b4 bd 75 b2 51 bd
       -0.060477324 0.16099855 -0.087953895 -0.05119558
000040 19 1e a3 bd 9b d9 94 bd eb c6 40 3b 62 ef 32 be
       -0.07964725 -0.072680674 0.002941544 -0.1747413
000050 8b c9 73 bb 4f f4 c7 bd 38 c4 3e be f6 ba 99 bd
       -0.0037198986 -0.09763395 -0.18629539 -0.07506363
000060 18 ab 98 bd 30 11 7f bd 50 0d 07 3d 92 46 55 bd
       -0.074545085 -0.06227225 0.03297168 -0.052069254
000070 5c 97 8a bd 46 38 74 bc f1 b8 7b bd 67 1c 36 3d
       -0.06767151 -0.014905995 -0.06145567 0.04446068
000080 9e 74 b8 3d 8c 45 84 be d4 4e be 3c 3d 11 dc 3c
       0.09006618 -0.2583431 0.023230948 0.026863689
000090 2c 70 71 bc d5 88 ad 3d d0 df a8 bc 20 72 77 bc
       -0.0147362165 0.08473364 -0.020614535 -0.015102893
0000a0 60 50 7c bb bf 2c 61 3c 0f 55 89 bd 5e 98 b4 3d
       -0.0038500056 0.013743578 -0.06705677 0.08818124
0000b0 20 70 30 3b 91 14 b2 bd 96 0e 7b bd 8a 40 cd bd
       0.00269223 -0.08695329 -0.061293207 -0.100220755
0000c0 2b 05 09 bd 68 a1 9b bc d3 12 27 3e 50 f8 0f 3e
       -0.033452194 -0.018997863 0.16315775 0.14059567
0000d0 4e a3 53 bd b1 08 8f bd c5 72 e0 3d c5 69 31 3d
       -0.05166941 -0.0698408 0.109593906 0.04331376
0000e0 a8 1a a8 bd 4f 13 1c 3e 44 42 4b bb 62 6e 8a 3d
       -0.08208209 0.1524174 -0.003101484 0.06759335
0000f0 60 86 31 3e 04 ee 7e 3d 20 ac d6 bc 6e 2b 0a bd
       0.17336416 0.06223871 -0.026205122 -0.033732824
000100 89 83 ee 3c fa 82 8b 3d 84 a9 3f bd 18 15 69 3d
       0.029115455 0.06812091 -0.046792522 0.056904882
000110 86 ab 93 3c 47 28 a3 bd 08 a7 a4 bd d9 92 28 3d
       0.018026125 -0.07966667 -0.08039671 0.04115567
000120 d7 ad 1b 3e 00 c4 16 be 1a 2c d3 3c c8 b3 a3 3c
       0.15203033 -0.14723206 0.025777865 0.019983187
000130 60 02 c1 3c 4b 93 44 be 74 78 e7 bc 8d 25 99 bd
       0.023560703 -0.19196813 -0.028255679 -0.07477865
000140 01 b5 a5 bd ca 18 e6 3a ac 47 9a 3d 37 f6 4f 3d
       -0.080911644 0.0017554995 0.075332016 0.05077192
000150 59 ce ca bd 76 8d 8f bd 4c 05 7d 3d 5e 4a bf bb
       -0.09902639 -0.070094034 0.06177263 -0.0058377227
000160 01 70 04 be e8 8f d3 bc 18 83 40 be 08 e2 e8 3c
       -0.12933351 -0.025825456 -0.18800008 0.028428093
000170 fe 11 b1 bd 62 a3 64 3e c0 d3 22 bc e2 18 dc 3c
       -0.0864601 0.2232795 -0.00993818 0.026867334
000180 8b 21 92 3d 90 a5 04 3c ec d8 76 3d 94 ee 9e 3d
       0.07135304 0.008096114 0.060265467 0.07760349
000190 90 34 08 bd fe d5 70 bd da 9a 65 bd ce e4 a3 3d
       -0.033253253 -0.05879783 -0.05605588 0.080026254
0001a0 e0 30 87 bd 16 cc c4 3d 3c 6a 3b 3d 04 2c c3 bc
       -0.06601119 0.09609239 0.04575561 -0.0238247
0001b0 39 a2 30 be 88 5b 99 bd 2b 20 08 bd de 6e b9 3b
       -0.17249383 -0.07488161 -0.033233803 0.0056589684
0001c0 4f 91 0e 3e 85 cc c6 bc 4d b9 9b bc 75 d8 3e 3e
       0.13922618 -0.024267444 -0.019009257 0.1863726
0001d0 00 d2 94 3d 09 99 5d 3e 57 24 2b bd fa 26 a3 bd
       0.07266617 0.2164041 -0.041782703 -0.079664186
0001e0 8c 29 1f 3e 3f 03 9b bc 7c 1f 8d 3b a1 cf 58 3e
       0.15543193 -0.018922446 0.0043067317 0.21172954
0001f0 13 73 8d bd ab bb ad 3d 45 86 c2 bd 31 c8 1c 3d
       -0.06906714 0.084830604 -0.09498266 0.038276855
000200 ce e9 b7 bd c6 f7 00 3c 20 da 9e bc b0 21 6e be
       -0.089801416 0.007871574 -0.01939112 -0.23255038
000210 20 e5 b3 3c 6c 9c 5e 3e ec eb f1 bc 2a ea 99 bd
       0.021959841 0.21739358 -0.029531442 -0.075153664
000220 ce 2a 1f bd fa 11 01 3d 38 87 29 3e e3 68 49 be
       -0.03885918 0.031511284 0.16555488 -0.19668917
000230 4a 59 b2 bc 74 b2 2d bc 96 09 f1 bc cc 0d cc 3d
       -0.021771092 -0.010601629 -0.029423516 0.09963569
000240 d9 b5 70 3d 2c bf 50 3d 67 80 5d bd 14 97 99 3d
       0.058767173 0.050963566 -0.054077532 0.07499519
000250 60 56 3a 3b e0 16 71 3d bf ce 9a bd 6a 39 c8 3c
       0.0028432831 0.058859706 -0.07558965 0.02444144
000260 5e 37 70 3c 87 ae 5d bd e3 4a 55 3d 21 92 0d be
       0.014661638 -0.05412152 0.05207337 -0.13825275
000270 fc b2 28 3c 11 a9 3d 3e d6 aa 33 3d 94 7e a9 bc
       0.010296579 0.18521525 0.043864094 -0.02069024
000280 00 87 2e bd 6c 8e b9 3d b4 95 ee bc 0a 20 fc 3c
       -0.042609215 0.09060368 -0.029124118 0.030776996
000290 6e d3 a8 3d 81 ff 5a bd b3 ef 34 bd 34 58 70 3e
       0.08243452 -0.053466324 -0.044173907 0.23471147
0002a0 4d 83 78 bd 8e f2 89 3d 93 8f c2 3d 9d cd 83 3d
       -0.060672093 0.06735717 0.09500041 0.06435702
0002b0 73 1b b9 bd 97 dc 5b bd d1 8a 80 be 3d 9a 96 be
       -0.09038439 -0.053677168 -0.2510591 -0.2941455
0002c0 1c 2c 13 bd 55 60 aa bc 36 53 8b 3d 36 f7 8f bd
       -0.035930738 -0.020797888 0.068029806 -0.070295736
0002d0 b2 6d 9e 3d 24 0a ea 3c 8f b9 7c 3d 64 29 a9 3c
       0.077357665 0.028569289 0.0617004 0.02064962
0002e0 da 8e 4f bd 9f 33 8e 3d c9 de c3 3d f0 88 9b bb
       -0.050673343 0.0694344 0.09563977 -0.004746549
0002f0 07 77 17 3d 77 0c ba 3d 11 33 6e 3d 02 2a e7 3c
       0.036978748 0.09084409 0.05815417 0.028218273
000300 c8 c7 10 3e dd 8a eb ba 19 dd a1 bd d1 b7 a0 3c
       0.1413871 -0.0017970462 -0.07903499 0.0196189
000310 80 5d 6e 3d 76 b2 15 be 73 b9 63 bd 59 22 74 bd
       0.058194637 -0.14618859 -0.05559678 -0.05960307
000320 a2 c4 50 3d ac 97 b8 3b 6a ec 59 3c 6a ce 07 bd
       0.050968774 0.005633315 0.013300994 -0.033155836
000330 a1 60 6a ba 26 3b 40 bd 96 41 6f 3c 2b 7f 74 3d
       -0.00089407904 -0.04693141 0.014603039 0.05969159
000340 f6 6b 91 be 1b 38 fc 3c c6 3d 17 3e 54 3c fd 3c
       -0.2840268 0.030788472 0.14769658 0.030912556
000350 e0 f6 1a bc 51 d2 b0 bd f5 ae a6 3d 7f 34 86 bd
       -0.009458274 -0.08633865 0.08138839 -0.065529816
000360 b8 fb 2d bd a0 b2 41 bb a9 ff d3 3c d6 ee fa 3c
       -0.042476386 -0.0029555932 0.025878744 0.030631464
000370 71 4c c8 3a 01 ac 25 be 08 5e 31 3d 10 d3 a6 bd
       0.001528157 -0.16178896 0.043302566 -0.08145726
000380 46 12 97 b9 1c ec 32 3d 0a 87 1f be c7 d9 18 3e
       -0.0002881458 0.043682203 -0.15578857 0.14926825
000390 4d 68 4a 3e d9 c3 ef 3d 97 52 71 bd 09 bd 85 bb
       0.1976635 0.11707277 -0.058916654 -0.0040813726
0003a0 0a 17 ae 3d f5 ed a1 bd 29 67 dc 3c 45 ff 61 be
       0.08500488 -0.07906715 0.02690466 -0.22070034
0003b0 9f 6a 2e 3c c6 bc fd bd e7 05 90 3c 5d 08 34 be
       0.010645538 -0.12389521 0.01758094 -0.17581315
0003c0 c0 09 21 3d b0 6e 7e bd 28 9f 6d 3c 2b 2b 14 bd
       0.03931594 -0.06211728 0.014503278 -0.03617398
0003d0 60 c5 ec bb 96 e8 6f bd 68 7b ad 3d f6 8d 89 3d
       -0.0072256774 -0.05857142 0.084708035 0.0671653
0003e0 bc 94 7d 3d 20 b3 84 bb b6 bf 1a bd 28 60 b4 bd
       0.061909422 -0.0040496737 -0.037780486 -0.08807403
0003f0 58 88 94 3d 18 a0 61 3c f4 06 85 bc 58 b1 3f 3d
       0.07252568 0.0137710795 -0.016238667 0.046799988

fc.2.bias f4 [84]
000000 22 4f 9c 3d 9a 8c 2e 3d 59 2e 59 bd 7f 83 f4 bc
       0.07632281 0.042614557 -0.053022716 -0.029847858
000010 d2 a3 07 bd a4 13 85 3d de 65 d1 bc a9 a1 4f 3d
       -0.033115216 0.06497887 -0.02556127 0.05069128
000020 2c b5 26 bd 49 0f 60 bd dc 88 f5 3c 28 04 18 bc
       -0.040700123 -0.054702077 0.029972486 -0.009278335
000030 38 1f d7 bc 5f 32 91 bd 29 74 95 3d d6 96 8f bd
       -0.026260003 -0.07089686 0.072975464 -0.070111915
000040 06 bf 61 bd 72 6c f6 bc c8 2a c7 3d e1 ec 8a bd
       -0.055113815 -0.030081008 0.09724957 -0.06783462
000050 c3 42 8a 3d be bd 8e 3d 20 8b 68 3d f4 76 d2 3c
       0.06751015 0.06969784 0.056773305 0.025691487
000060 da 1d a7 bb 1f 06 ce bd 7e 30 ff bc ff 06 06 3e
       -0.005099994 -0.10059761 -0.031151053 0.13088606
000070 ee d4 69 bd ae 12 df 3d 8c 2e 00 bd 5d 2f 2c 3d
       -0.05708783 0.10892235 -0.03129439 0.042037357
000080 9a bd 57 bd 73 8e ca bc 5b 71 85 bd da a4 33 3e
       -0.052671053 -0.024726128 -0.065157615 0.17543355
000090 7a 7c 83 3c fb a3 d1 3c c0 30 a0 bd c1 e2 a9 3d
       0.016050566 0.025590887 -0.07821798 0.08295203
0000a0 bf 8d 9d 3d 90 90 88 bd 94 61 1d bd e6 f5 88 3d
       0.076930515 -0.06668198 -0.038423136 0.066875264
0000b0 28 9c 33 bd a1 9e ef bb 8e 76 6e 3c 28 88 72 bd
       -0.043850094 -0.007312611 0.014554633 -0.05921188
0000c0 bd f6 71 bb 34 61 89 3c 13 33 06 3d d4 6c 95 3d
       -0.003692075 0.016769983 0.032763552 0.07296148
0000d0 ee 3f 63 bd ae ab 25 3d a5 4d cf bc ec 9c 4a bd
       -0.05548089 0.04044693 -0.025305578 -0.04946606
0000e0 3a 8e e7 bd 66 b1 c4 bd 37 29 98 bb 53 cc 15 3e
       -0.113064244 -0.096041486 -0.004643585 0.14628725
0000f0 90 2e ea 3c 58 33 05 bc 0c 66 dd 3d 37 1f b1 bc
       0.028586656 -0.008129917 0.108104795 -0.02162133
000100 9b c0 31 3d 40 66 9f bc 54 69 93 bd 36 3f d9 bc
       0.043396574 -0.019457936 -0.07197824 -0.0265194
000110 df 0f ee 3d 98 6d 8d 3d b0 b5 94 bd e6 0f a3 3d
       0.11624121 0.06905669 -0.07261217 0.07962017
000120 0c a6 47 bc 3d a5 80 3d f3 8e 56 3d 9a ff 5a bd
       -0.012185585 0.06281517 0.05238242 -0.053466417
000130 6d cc 05 3e 0e c3 5e 3d d2 02 69 bd 58 d5 5e 3d
       0.13066263 0.054385237 -0.056887455 0.05440268
000140 86 0b 37 bd 2a 62 18 be e8 0b 2e 3d a3 7c a7 bd
       -0.044688724 -0.14881197 0.042491823 -0.081780694

fc.4.weight f4 [10, 84]
000000 41 d8 83 3d 9a e4 0e 3e 60 94 4d bc 36 34 18 3d
       0.064377315 0.13954392 -0.012547582 0.037159167
000010 22 58 51 bd fc 02 8d 3d 35 be 76 bd ec 42 31 3d
       -0.05110944 0.06885335 -0.06023999 0.043276712
000020 a9 ff 8e be ab 05 8f 3d 65 59 6e 3e 40 2e b0 bd
       -0.27929428 0.06983503 0.23276289 -0.086025715
000030 cf e1 9c 3d 34 b7 70 3d 67 fe 5b 3e 72 65 20 3d
       0.07660257 0.058768466 0.21483766 0.039159246
000040 e9 14 bf bd c0 82 f6 bc 3b 89 d9 3d c7 b9 d8 3d
       -0.0933016 -0.030091643 0.10621878 0.10582309
000050 3c a4 9a 3d 8a 3e cd b9 c8 06 6f bd de 22 62 3d
       0.075508565 -0.00039147242 -0.058356076 0.055209033
000060 50 d6 32 3e 24 1f c4 bd 2a 44 2a 3d 21 d9 05 3e
       0.17464566 -0.09576252 0.041568913 0.1307111
000070 86 75 c1 3d 43 b8 20 3d 63 75 a1 3d 17 95 3a bd
       0.09446244 0.039238226 0.07883718 -0.04555234
000080 30 8e de 3b ce c6 8f 3d c8 99 e3 bd 39 7c 63 be
       0.0067918524 0.07020341 -0.11113316 -0.22215356
000090 63 22 78 bd a0 0b 69 be 85 90 89 3d 1f 47 03 3e
       -0.06057967 -0.22758341 0.06717018 0.128201
0000a0 bd 36 ce 3d 08 95 a0 bd 96 47 17 be 59 bb 08 bc
       0.10069034 -0.078409255 -0.14773402 -0.008345448
0000b0 b2 27 12 be 54 b4 2f be 23 05 2d bd 95 5c a1 bd
       -0.14272955 -0.17158633 -0.042241227 -0.07878987
0000c0 9d cf c1 bd 6b 1a 3f be ae 18 86 3d a2 fc 27 3d
       -0.09463427 -0.18662421 0.06547676 0.041012414
0000d0 dc f6 be bd 08 5a af 3c b9 4f 67 3e 62 ce 0a be
       -0.093244284 0.021405235 0.22589006 -0.13555291
0000e0 96 a3 dc bd da ac 77 bd 50 80 a0 bc 68 47 5a be
       -0.10773389 -0.06046758 -0.019592434 -0.21316302
0000f0 57 a0 b5 3d 15 f8 34 39 7d c1 7c 3d fe 27 22 3e
       0.08868473 0.00017258555 0.061707962 0.15835568
000100 2d 50 5d be d6 d1 03 3d e9 17 6f be 9d 62 4f bd
       -0.21612616 0.032182537 -0.23348965 -0.050631154
000110 34 c2 0b 3a 38 4d 3d bd a3 3e d4 3e c3 04 a2 3d
       0.0005331368 -0.04621622 0.41454038 0.079110645
000120 4c 73 6c 3e 8f ac b1 bd d1 33 50 be 6f 73 87 3d
       0.23090857 -0.08675491 -0.20332266 0.06613814
000130 b7 b3 53 3e b3 ba a6 bd f0 a9 b9 bc 8e 5c 3b bc
       0.20674025 -0.08141079 -0.02266404 -0.011435641
000140 d1 28 92 3d 09 3e f9 3d a0 6b 84 bb 7b 2b be bc
       0.07136691 0.121700354 -0.00404115 -0.023214092
000150 e4 ff 5e be ff ca 06 be 48 46 3a 3c 8a 82 0d 3d
       -0.21777302 -0.13163374 0.011369295 0.03454832
000160 65 b6 ce 3b 67 e7 7c 3e 3b 5f 0d be 74 d3 f5 3d
       0.006308364 0.24697648 -0.13805859 0.12003222
000170 25 b8 62 3d 0e 86 52 be 11 a6 17 bd 63 fc be bd
       0.055351395 -0.2055895 -0.037023608 -0.09325483
000180 8d 1c b6 3d b7 f0 80 bd 3b a4 b4 bc 0c f7 d5 3c
       0.088921644 -0.06295913 -0.022050967 0.026118778
000190 bd 39 ab bd f6 ad bf bd 9d 07 19 be 4e 61 7f 3d
       -0.08360622 -0.09359352 -0.1494431 0.062348656
0001a0 5c 3d 9d bb 82 8a cd 3d 00 23 2b bd 94 ef 6a bd
       -0.0047985744 0.10036184 -0.041781425 -0.057357386
0001b0 20 91 3f be 3a e8 96 bd a4 13 bb bd 75 c5 66 be
       -0.18707705 -0.073685125 -0.091346055 -0.22536261
0001c0 4c ae 36 3c 97 3f d9 bd ce 76 d5 bd f5 26 64 3d
       0.011149954 -0.10607832 -0.10423051 0.055701215
0001d0 1c 64 b4 bd b8 a5 f9 bd 30 e4 6d bd b3 38 91 bc
       -0.08808157 -0.121898115 -0.058078945 -0.017727232
0001e0 ad 51 8e 3d 70 32 4e 3e 3d 7d d4 3d fb 57 4e bc
       0.06949172 0.20136428 0.1037545 -0.012594218
0001f0 dc 46 c5 3d e5 82 4f bd 84 f4 78 3e cb f4 27 be
       0.09632656 -0.05066194 0.24312025 -0.16401975
000200 67 6c 51 3e 6a 92 1e 3e cd ee df bc c0 ed 47 3e
       0.20451508 0.1548554 -0.027335549 0.19524288
000210 d1 be b7 3d 72 35 65 3e 35 ce b6 bd c2 8b 14 bd
       0.08971942 0.22383669 -0.089260496 -0.036266096
000220 55 a3 b2 3b 7d 7e 67 3d 9c 43 2f be 30 78 e9 3d
       0.0054515996 0.056517113 -0.17115635 0.11399877
000230 54 72 25 3e a9 6e 4b 3c 33 28 33 be b6 dd c5 3d
       0.16156894 0.01241652 -0.17495804 0.09661429
000240 e4 e6 b4 bd 31 19 6a bd 82 55 98 bd c5 77 29 be
       -0.088331014 -0.05715293 -0.07438184 -0.16549595
000250 0f 5c b9 3d 50 23 a9 3b 0d 7b 04 3e bb ad 95 3c
       0.09050762 0.0051616803 0.12937565 0.018271318
000260 d6 c2 21 be 2c 20 be bd 4b 6a 88 bd 7c 2a bb 3c
       -0.1579698 -0.0928348 -0.06660899 0.022847407
000270 c9 b0 2f 3d 27 97 b2 3d 60 7d 66 3e 15 6d 8f 3d
       0.042893205 0.08720236 0.22508764 0.070032276
000280 81 b7 db bd b0 80 cf 3c 8a f5 12 3d b7 b1 89 bc
       -0.1072836 0.025329918 0.035878696 -0.016808374
000290 f5 20 b5 3d 6c 36 af 3d e4 00 b5 3c 67 39 ae bd
       0.08844177 0.08555302 0.022095151 -0.085070424
0002a0 b9 8d 31 3e 2a 84 f2 bd 1d 04 4a bd 6e c5 7b 3c
       0.17339219 -0.118416145 -0.04932033 0.015366895
0002b0 e7 c9 93 3d de d2 e3 3d 52 8d 1a 3e 33 7d 5f 3d
       0.07216244 0.11124204 0.15092972 0.05456276
0002c0 91 93 f4 3d c8 c8 ff 3e 2d 00 7e 3e 68 cd e0 bd
       0.119422086 0.4995787 0.24804755 -0.10976678
0002d0 63 98 d1 3d 54 0c 80 3d 35 d4 89 3d d0 26 3f 3c
       0.102341436 0.062523514 0.067299284 0.011666968
0002e0 26 ed b7 bd 51 e7 55 3d 7e 93 27 be cc d3 79 be
       -0.08980779 0.052222554 -0.16364858 -0.243972
0002f0 5f d0 76 bc d3 47 3d 3e 85 1e fe bd 35 04 68 3d
       -0.015064328 0.1848443 -0.12408165 0.056644637
000300 6c 88 10 bd 86 7f 91 3d a8 6f e9 bc 3a ed ff bd
       -0.035286352 0.07104401 -0.028495625 -0.12496419
000310 9f 88 e6 bc 5f 0e 26 3b 39 0b ce 3e e2 80 fb bc
       -0.028141318 0.0025338156 0.40242937 -0.030701105
000320 70 02 ce bd 22 ec 81 3e e0 57 82 bd 06 6c 23 3e
       -0.10059059 0.25375468 -0.06364417 0.15959176
000330 6b 63 f5 3c 1b cd 18 3d 3c 0c d8 bd 41 8c 28 3e
       0.029954633 0.03730498 -0.105492085 0.16459753
000340 8c c7 31 3d eb 90 dc 3d a4 51 58 3e 04 53 4f be
       0.043403193 0.107698284 0.21124893 -0.20246512
000350 76 d2 9b be 84 b5 36 be 22 ab 1b 3d ac 15 2f 3e
       -0.30434006 -0.1784268 0.038005 0.17098111
000360 f7 2e 79 bd 94 14 a1 bb 44 a9 1c bd c7 dd 89 bd
       -0.060835805 -0.004915783 -0.03824736 -0.06731754
000370 69 8c a0 bd 3c 91 86 3d a2 c6 17 3e 2f a3 d0 bb
       -0.07839281 0.0657067 0.14821866 -0.0063671093
000380 2c 71 e6 3d 10 bc 83 3d 58 cf 6e 3e 65 6d 44 be
       0.112520546 0.064323545 0.23321283 -0.19182356
000390 25 b4 87 3d 9a 50 fc ba 67 eb 13 3e ab 35 2a be
       0.06626157 -0.0019250095 0.14445268 -0.16622035
0003a0 64 9c 82 3e b5 76 a7 3d b9 8f 8a bd 96 b0 c1 3c
       0.25509942 0.081769384 -0.06765694 0.023643773
0003b0 ad 47 38 be b4 18 b0 3c d5 cf 44 3e d4 5d 1f bd
       -0.17996092 0.021496154 0.19219907 -0.03890784
0003c0 44 b7 ab 3d 52 d4 ac bd 51 98 aa be c5 28 b4 bd
       0.083845645 -0.084389344 -0.33319333 -0.08796839
0003d0 ac d7 96 be c9 d9 95 b9 6e 26 97 bd f3 51 90 3d
       -0.2946142 -0.00028581757 -0.07380377 0.070468806
0003e0 16 1b 73 3d b9 b0 9a bd aa 48 6a 3d d6 8b 27 3d
       0.059352003 -0.075532384 0.057198204 0.040904842
0003f0 15 42 97 bd 5f 95 36 3d f2 07 84 bd 85 73 c7 3d
       -0.07385651 0.044576045 -0.06446828 0.097388305

fc.4.bias f4 [10]
000000 97 8e 6e bc 1a 74 da bd 58 1e b0 bd 7c 5b 0a bd
       -0.014560363 -0.10666676 -0.085995376 -0.033778653
000010 e6 48 28 3d c7 eb bc 3d 95 df 77 bc 95 93 14 3d
       0.041085146 0.092246585 -0.01512899 0.036273558
000020 81 27 e6 3d 81 c3 dd 3d
       0.112380035 0.10828305
